Fine-Tuning/bipedal_q5_latest.pt (torch, 403165 bytes, 44 tensors)

weight f4 [128, 24]
0	0xbc8aafc4	-0.016929515
1	0xbd969cf7	-0.073541574
2	0xbeed599e	-0.46357435
3	0x3e89687a	0.26837522
4	0x3e413a0e	0.18869802
5	0xbb8421b6	-0.004032339
6	0xbe500d63	-0.20317607
7	0xbe25a542	-0.16176322
8	0x3e3b666e	0.18300793
9	0xbe21e56f	-0.15810178
10	0xbe7fc825	-0.24978693
11	0xbe411b84	-0.18858153
12	0x3d01bf26	0.031676434
13	0x3d990faf	0.074736945
14	0xbe4ed34c	-0.20197791
15	0x3d237f98	0.039916605
16	0x3cd28d26	0.02570207
17	0xbc31c086	-0.010849124
18	0xbc1e9e1d	-0.009681252
19	0x3cb3d571	0.021952363
20	0xbe70ff3f	-0.23534869
21	0x3d3272d1	0.04356653
22	0xbd1e44b4	-0.03863974
23	0x3bd9fd1d	0.006652488
24	0xbf090f9f	-0.5353946
25	0xbe28be82	-0.16478923
26	0x3ec6258c	0.3870052
27	0xbe9bb631	-0.3041244
28	0x3de8903d	0.11355636
29	0xbe2fc607	-0.17165385
30	0xbd2554f8	-0.040364236
31	0xbdfd8c48	-0.12380272
32	0x3e94c4a2	0.2905627
33	0xbe1f68cf	-0.15567325
34	0x3cd5c224	0.02609355
35	0xbe8c50bb	-0.27405342
36	0x3dffe63d	0.12495086
37	0xbd620da3	-0.055188786
38	0xbe118147	-0.14209472
39	0x3da13ac1	0.078725345
40	0xbcd9e1a5	-0.026596854
41	0x3e0d5425	0.1380163
42	0x3d7e4bab	0.06208388
43	0xbd14423a	-0.03619597
44	0xbe109955	-0.14120992
45	0x3d92cbb5	0.0716776
46	0x3b00a7a6	0.0019631176
47	0x3da75e5d	0.08172295
48	0x3d8e1308	0.06937224
49	0xbe61da29	-0.22055878
50	0x3d8ac91d	0.067766406
51	0x3e0d1bb3	0.13780098
52	0xbc9c8bea	-0.019109685
53	0x3eb97d54	0.3622843
54	0x3e174b74	0.14774877
55	0x3d112613	0.0354367
56	0x3ed331a8	0.41248822
57	0xbe0cbf5e	-0.13744876
58	0x3e403cdd	0.18773217
59	0x3da6f08b	0.08151349
60	0xbeb7873b	-0.3584536
61	0x3dccc508	0.09998518
62	0x3d39d44d	0.04536848
63	0xbd834bd0	-0.064109445
64	0xbdd2d571	-0.10294617
65	0x3d08d02a	0.033401646
66	0x3d75e818	0.060035795
67	0x3e162c00	0.14665222
68	0xbd70ed85	-0.058820266
69	0xbd838e70	-0.06423652
70	0xbe03a840	-0.12857151
71	0x3dcaab6d	0.09895978
72	0xbe3ad865	-0.1824661
73	0xbdbe0e17	-0.09280031
74	0xbd8e238e	-0.06940375
75	0xbd30ecf5	-0.04319473
76	0x3c83fa41	0.016110541
77	0x3db2805e	0.0871589
78	0xbdb7c1d6	-0.08972518
79	0x3e010c60	0.12602377
80	0x3eb80a27	0.35945246
81	0x3e308ff0	0.17242408
82	0x3e9424cb	0.2893432
83	0xbe935a7f	-0.2877998
84	0xbe3daf92	-0.18524006
85	0x3ec5ef05	0.3865892
86	0x3dc985f4	0.09840003
87	0xbda91a18	-0.0825693
88	0xbcc5035f	-0.024049459
89	0xbe57e1f0	-0.21082282
90	0xba18c64c	-0.00058278884
91	0xbd2d8eb2	-0.042372413
92	0xbe080579	-0.13283338
93	0xbddbf6cf	-0.107404344
94	0x3d0b5319	0.034014795
95	0x3c7ef027	0.0155601865
96	0xbeef546c	-0.46744096
97	0x3e676e61	0.226007
98	0x3e4910f9	0.19635381
99	0xbeb4fcb4	-0.35349047
100	0x3b211b7e	0.0024583037
101	0x3daebd38	0.08532184
102	0x3e8061d0	0.25074625
103	0x3dbb48ea	0.09144767
104	0x3c96f584	0.018427618
105	0x3f08dd1a	0.53462374
106	0x3b37301f	0.0027952266
107	0xbd78106a	-0.06056253
108	0x3ddff91d	0.109361865
109	0x3e6210fd	0.22076793
110	0x3dbaa774	0.091139704
111	0x3d61f191	0.055162016
112	0x3e495924	0.1966291
113	0x3e1d84aa	0.15382639
114	0x3d4b6f2d	0.049666572
115	0x3e2e2c04	0.17008978
116	0xbdcb9f7e	-0.0994253
117	0xbc8d7cc5	-0.017271409
118	0x3e5aaf0d	0.21355839
119	0xbd98aa90	-0.07454407
120	0x3b55dbfe	0.0032632346
121	0xbd270bf8	-0.0407829
122	0xbea65a1e	-0.3249063
123	0x3d5fd0bd	0.054642428
124	0x3e829d41	0.255106
125	0x3ec21da0	0.37913227
126	0xbe801ce1	-0.25022033
127	0x3e8f64e7	0.2800667
128	0x3eba41e4	0.36378396
129	0x3dfe8f9f	0.12429737
130	0xbd92d419	-0.07169361
131	0xbea09eba	-0.313711
132	0x3c80c14e	0.015717175
133	0xbd7063a9	-0.058688793
134	0xbe779130	-0.24176478
135	0xbddf8cb5	-0.109155096
136	0xbcd1c7b0	-0.025607914
137	0xbdd27d8d	-0.10277853
138	0xbe16c29b	-0.14722674
139	0xbe49e860	-0.1971755
140	0xbd63afb0	-0.05558747
141	0x3bb6960f	0.0055720876
142	0x3d17d93d	0.03707241
143	0x3d62569d	0.055258382
144	0xbe2643c2	-0.16236785
145	0xbe7f78c6	-0.24948415
146	0x3e45f2a4	0.19330841
147	0x3e6b22d6	0.22962508
148	0x3f0a7033	0.5407745
149	0x3e4dc7ba	0.20095721
150	0x3e59567e	0.212244
151	0xbdf35e75	-0.118832506
152	0xbe3079e0	-0.17233992
153	0xbed7ba1b	-0.42134175
154	0x3e6330e9	0.22186626
155	0x3d6edd7a	0.058316685
156	0xbcae268c	-0.021258615
157	0xbd22ba46	-0.039728425
158	0xbe80ccb3	-0.25156173
159	0xbe027840	-0.12741184
160	0xbe04cc15	-0.12968476
161	0xbe71e393	-0.23621969
162	0xbe503378	-0.20332134
163	0xbcc2038f	-0.023683337
164	0xbe7b2332	-0.24525145
165	0xbbc848f4	-0.0061122123
166	0x3e15c169	0.14624561
167	0x3cbd9ebd	0.023146981
168	0xbdca9761	-0.098921545
169	0xbd52b1d2	-0.051439114
170	0x3db984f6	0.090585634
171	0x3ec0c1dc	0.37647903
172	0xbdd9afd7	-0.10629242
173	0xbe9001c6	-0.28126353
174	0x3ef4b4c6	0.4779417
175	0xbe9ee5cb	-0.31034693
176	0x3e0c9f02	0.13732532
177	0x3e30731f	0.17231415
178	0xbe1e42b1	-0.15455128
179	0x3dd1c865	0.102433
180	0x3e267124	0.16254097
181	0x3d8892d3	0.066686295
182	0x3d423c96	0.04742106
183	0x3d83d55b	0.06437179
184	0xbc8d78ff	-0.01726961
185	0x3de58a62	0.11208035
186	0x3eacc0fc	0.33740985
187	0x3dcd23e5	0.10016612
188	0x3e8f5d62	0.28000933
189	0x3e446dfb	0.19182579
190	0x3e0a694c	0.1351673
191	0x3cec4e99	0.028846072
192	0xbcf3d2b4	-0.029763557
193	0xbd978b02	-0.073995605
194	0x3dd3a04e	0.1033331
195	0x3c9056a3	0.017619437
196	0xbe2da0d9	-0.1695589
197	0x3decebbb	0.115683995
198	0xbdc79012	-0.09744276
199	0x3e4e394b	0.20139043
200	0xbcee0338	-0.02905427
201	0x3e3a5414	0.18196136
202	0xbe450632	-0.19240645
203	0x3e3bca24	0.1833883
204	0x3d0bd4bf	0.034138437
205	0x3d646689	0.055761848
206	0x3ca8fe94	0.020629205
207	0x3df6c16d	0.12048612
208	0x3dba9c14	0.09111801
209	0xbd7f7ff0	-0.06237787
210	0x3e5f1206	0.21784219
211	0x3e4e0b70	0.2012155
212	0xbe02ad31	-0.1276138
213	0xbde35b60	-0.11101413
214	0x3e416c44	0.18888956
215	0x3e8dcb8c	0.27694356
216	0x3c1ceba0	0.009577662
217	0xbe5f9bc1	-0.21836759
218	0x3e7493ab	0.23884456
219	0xbddb852e	-0.107187614
220	0xbeb8b132	-0.3607269
221	0xbdfeae03	-0.12435534
222	0xbe2f1c39	-0.1710061
223	0xbdef8ad6	-0.11696403
224	0xbc281ad9	-0.010260307
225	0xbe6cbd51	-0.23119093
226	0xbdf248bf	-0.118302815
227	0x3eb2b097	0.34900352
228	0x3e80cf62	0.2515822
229	0x3ec29cb1	0.3801017
230	0x3e5aa62d	0.21352454
231	0xbddc5b29	-0.10759575
232	0x3d807e40	0.0627408
233	0x3e49dc6f	0.19712995
234	0x3e2be024	0.16784722
235	0xbe2c6702	-0.1683617
236	0x3cdea169	0.027176576
237	0x3d06b4c1	0.032887224
238	0x3d394d57	0.045239773
239	0x3de5af20	0.11215043
240	0xbe6fc0ef	-0.23413442
241	0xbe01838c	-0.12647837
242	0x3e93b797	0.28851005
243	0x3e7b177e	0.2452068
244	0x3e0d4123	0.13794379
245	0xbd6b47d7	-0.05744156
246	0x3eae6199	0.34058836
247	0xbe9eda85	-0.31026092
248	0xbeee0889	-0.46490887
249	0x3eb3186d	0.34979573
250	0xbe3a0bd7	-0.18168579
251	0xbe117476	-0.14204583
252	0x3eac3834	0.3363663
253	0x3df92c56	0.121666595
254	0xbe4d40df	-0.20044278
255	0xbe503b76	-0.20335183

bias f4 [128]
0	0x3e046046	0.1292735
1	0x3dca641c	0.098823756
2	0xbdc0ac1a	-0.09407826
3	0x3e44c939	0.19217385
4	0x3ca8aa05	0.020588884
5	0xbce3f83b	-0.027828326
6	0x3e6c0dc2	0.23052123
7	0x3e55a26c	0.2086274
8	0x3e016002	0.1263428
9	0xbe24f16f	-0.16107725
10	0xbb9ee3fb	-0.0048489547
11	0xbd657ab3	-0.05602522
12	0xbd060e13	-0.032728266
13	0xbeaac2c5	-0.33351722
14	0x3e5476c5	0.20748432
15	0xbe115b3b	-0.14194958
16	0x3e4aebf1	0.19816567
17	0x3e03f6c1	0.12887098
18	0x3de5fada	0.11229487
19	0xbe02b701	-0.12765123
20	0x3da5de90	0.08099091
21	0x3e0b69f6	0.1361464
22	0x3ca8dc19	0.020612763
23	0xbde2cf67	-0.11074715
24	0x3e5873eb	0.21137969
25	0x3e0ebd51	0.13939406
26	0x3e2ee74c	0.1708042
27	0x3e020345	0.1269656
28	0xbde5dbd0	-0.112235665
29	0xbd06039e	-0.032718293
30	0xbd936fb8	-0.07199043
31	0xbc5f81b9	-0.013641768
32	0x3e51c519	0.20485343
33	0xbe1a2dc3	-0.15056519
34	0x3e397897	0.18112408
35	0x3d2ee029	0.042694245
36	0x3e5cac94	0.21550208
37	0x3d4b2def	0.049604353
38	0x3e3934e4	0.18086582
39	0xbd6a9c04	-0.057277694
40	0xbda1bf95	-0.078978695
41	0xbd25aada	-0.04044614
42	0xbd889498	-0.06668967
43	0xbcef5bf8	-0.029218659
44	0xbb2f5149	-0.002675133
45	0x3dd1cd86	0.102442786
46	0x3db4d652	0.08829941
47	0x3c615c6c	0.013754945
48	0x3e09c6b5	0.13454707
49	0x3e0fb6c9	0.14034571
50	0x3e10c63b	0.14138119
51	0xbe359b06	-0.17734918
52	0xbcc29b2e	-0.023755636
53	0x3d79145a	0.060810424
54	0x3e80eb17	0.2517936
55	0xbdb5bd03	-0.08873942
56	0x3d9320b1	0.0718397
57	0xbdc6e74b	-0.097120844
58	0x3c8f25e6	0.017474126
59	0xbd643d58	-0.055722564
60	0x3e28a975	0.16470893
61	0x3dd5e7ea	0.10444625
62	0x3e519b25	0.20469339
63	0x3da9e0b0	0.08294809
64	0x3d9befcf	0.07614099
65	0x3d8d5f32	0.06902923
66	0xbd9cc612	-0.076549664
67	0xbe0466e6	-0.12929878
68	0x3e6bb489	0.23018087
69	0xbdc2debc	-0.095151395
70	0x3e9655e6	0.2936241
71	0xbc92cfa7	-0.017921282
72	0x3e12aed3	0.14324503
73	0xbd6ec7f4	-0.05829616
74	0x3c9fe1d8	0.01951687
75	0x3dca8dbd	0.09890316
76	0xbc7bdfbc	-0.015373167
77	0x3d988572	0.07447328
78	0xbdb23952	-0.08702339
79	0xbc95e48e	-0.01829746
80	0x3e38d439	0.18049707
81	0x3e028896	0.12747416
82	0x3d735a43	0.059412252
83	0xbd1b38aa	-0.037895836
84	0xbe0ef103	-0.13959126
85	0xbdc957e1	-0.09831215
86	0x3e0ca038	0.13732994
87	0xbc898805	-0.016788492
88	0x3d933de0	0.07189536
89	0xbda2ac21	-0.07942987
90	0x3cc6bf25	0.024261067
91	0x3ceede42	0.029158715
92	0xbe5d8847	-0.21634017
93	0x3e831729	0.25603607
94	0x3be733de	0.0070557436
95	0x3e71fee4	0.2363239
96	0x3e0a2a28	0.13492644
97	0x3e51cd44	0.20488459
98	0xbe491ec2	-0.1964064
99	0x3e094086	0.1340352
100	0xbd2f0388	-0.042727977
101	0x3d2e4f79	0.04255626
102	0xbcda0905	-0.026615629
103	0x3d900972	0.070330516
104	0xbd869bbb	-0.06572672
105	0x3b4bc016	0.0031089834
106	0x3dcd4992	0.10023798
107	0x3e48e0ad	0.19616957
108	0x3e9123f1	0.28347734
109	0x3e656276	0.22400841
110	0xbdfe1208	-0.12405783
111	0x3e256c39	0.16154565
112	0xbdb6f6b7	-0.08933776
113	0xbd0d6e1b	-0.034528833
114	0xbe1092ee	-0.14118549
115	0xbd2f61eb	-0.04281799
116	0xbd5b9ad4	-0.053614452
117	0x3e66098d	0.22464581
118	0x3d20b86f	0.03923839
119	0x3dffd05d	0.12490914
120	0x3e32a2fe	0.17444989
121	0x3d8e6da8	0.06954509
122	0x3e90424d	0.28175583
123	0x3e132216	0.14368472
124	0x3cb0a458	0.02156274
125	0x3da63af0	0.0811671
126	0x3e6af07d	0.22943301
127	0xbd56f8cf	-0.052483376

weight f4 [64, 128]
0	0x3db43a24	0.08800152
1	0xbe9cf335	-0.30654302
2	0xbb9a3ab3	-0.0047067045
3	0x3e1194b5	0.14216883
4	0xbd7d943a	-0.061908938
5	0xbe9c70f7	-0.30554935
6	0x3dd14a86	0.10219292
7	0xbd54c714	-0.05194767
8	0xbd00a506	-0.03140738
9	0x3d19a0e0	0.037506938
10	0xbb7412b6	-0.0037242598
11	0xba18e8cb	-0.00058330287
12	0x3d8baa5e	0.06819604
13	0x3dc8278b	0.09773167
14	0x3e26b2d8	0.16279161
15	0xbdf849af	-0.12123429
16	0xbeb535e9	-0.35392693
17	0xbca39506	-0.01996852
18	0x3d071d7b	0.0329871
19	0xbe1b7455	-0.15181096
20	0x3dbcdfa1	0.09222341
21	0xbcb666a3	-0.022265738
22	0xbcd7e985	-0.026356468
23	0xbd3544d2	-0.044255085
24	0xbd2ff5b3	-0.042958926
25	0xbe94a953	-0.29035434
26	0xbdc87823	-0.09788539
27	0x3d45bf88	0.04827836
28	0x3d256c02	0.040386207
29	0x3b04364a	0.002017396
30	0x3db7ce4f	0.08974897
31	0x3e3c5a08	0.18393719
32	0x3e1c51b6	0.15265545
33	0xbeb1ebf6	-0.34750336
34	0xbd899ed9	-0.06719751
35	0x3d855073	0.06509485
36	0x3e17dae6	0.14829597
37	0xbe571d10	-0.2100718
38	0x3dd6020e	0.10449611
39	0x3d49a506	0.049229644
40	0xbc0e2e91	-0.0086780945
41	0x3e2c7f5b	0.16845457
42	0xbee749ba	-0.45173436
43	0xbe19a5d4	-0.15004665
44	0x3e41a427	0.18910275
45	0x3ce68fb2	0.028144691
46	0x3d890eb8	0.066922605
47	0x3d644f5b	0.05573974
48	0x3e625136	0.22101292
49	0x3dc9ef51	0.09860099
50	0xbe134ec4	-0.14385515
51	0x3cffa70d	0.031207586
52	0xbe04d92c	-0.1297347
53	0xbbee0fea	-0.0072650807
54	0x3deb37d5	0.114852585
55	0x3cea636a	0.028611857
56	0x3d99d5bc	0.0751147
57	0x3c71bfba	0.014755184
58	0xbb0e1ddf	-0.0021685285
59	0xbec33bab	-0.3813146
60	0xbea995af	-0.33122012
61	0x3e6797e5	0.22616537
62	0xbe06873f	-0.1313753
63	0x3e94b2a6	0.29042548
64	0x3e3920be	0.18078896
65	0xbdf996c9	-0.12186963
66	0x3db356bb	0.08756777
67	0xbcd78e59	-0.026312994
68	0x3e311676	0.17293724
69	0xbdd47327	-0.10373526
70	0x3e56afcf	0.20965503
71	0xbd647c60	-0.055782676
72	0xbd39030a	-0.045168914
73	0x3aeaaddc	0.0017904597
74	0x3e17643a	0.14784327
75	0x3ca1402d	0.019683922
76	0x3e357c90	0.17723298
77	0xbdfad765	-0.122481145
78	0xbd0f4f01	-0.034987453
79	0xbdcb4961	-0.09926105
80	0xbe0e9b35	-0.13926394
81	0x3c8502ce	0.016236689
82	0x3d0f019b	0.03491364
83	0x3e1bfd08	0.15233243
84	0xbd0532b6	-0.032519065
85	0x3b6e180c	0.003633025
86	0x3e3c1b35	0.18369754
87	0x3c44c792	0.012010472
88	0x3d8b9ee0	0.068174124
89	0xbd6e3dc0	-0.05816436
90	0x3e2fc79d	0.1716599
91	0xbe4f4f59	-0.20245112
92	0xbe8bad46	-0.27280635
93	0x3e19951a	0.14998284
94	0x3c978b68	0.018499091
95	0x3db05bfb	0.08611294
96	0x3e6a33a0	0.22871256
97	0x3c7f5a55	0.015585502
98	0x3dbca765	0.092116155
99	0x3e0a0299	0.13477553
100	0xbc4adcbc	-0.012381729
101	0x3e25426c	0.16138619
102	0xbd173949	-0.036919866
103	0x3d9a0d55	0.07522074
104	0xbe34f7a6	-0.17672595
105	0x3d4a784c	0.04943113
106	0xbe23fc98	-0.16014326
107	0x3dba92ba	0.09110017
108	0x3e27fdc7	0.16405402
109	0x3e6955bb	0.2278661
110	0xbd19a644	-0.03751208
111	0xbe1b7b64	-0.15183789
112	0xbc1b0910	-0.00946261
113	0x3d7f18ff	0.062279698
114	0xbea0470a	-0.31304199
115	0x3e223ff1	0.15844704
116	0xbe1fe40c	-0.15614337
117	0xbb876361	-0.00413172
118	0xbe52d370	-0.2058847
119	0xbd4411ba	-0.047868468
120	0xbd61518c	-0.05500941
121	0x3df514dd	0.1196687
122	0xbd628c55	-0.055309612
123	0x3c352d12	0.011058109
124	0x3d054017	0.032531824
125	0xbe8e5e70	-0.27806425
126	0xbcf2211f	-0.029556809
127	0x3aedcb69	0.0018142286
128	0x3dad2ead	0.08456168
129	0x3d3a9ca3	0.045559537
130	0x3db4e2f6	0.08832352
131	0xbe44190c	-0.1915018
132	0xbe87e218	-0.26539683
133	0x3e0a55f7	0.13509355
134	0x3e510d50	0.20415235
135	0x3c9f7606	0.019465458
136	0xbe848f5c	-0.25890625
137	0xbd06edc9	-0.032941613
138	0xbde69239	-0.112583585
139	0xbde66336	-0.11249392
140	0x3e675f17	0.22594868
141	0xbc965c28	-0.01835449
142	0x3d85f37a	0.0654058
143	0xbdd13a33	-0.10216179
144	0x3e4cff86	0.2001935
145	0x3d04722d	0.03233545
146	0x3db311d9	0.087436385
147	0x3d33ce6c	0.04389803
148	0x3dfee82d	0.12446628
149	0x3e8fde86	0.2809946
150	0xbe741852	-0.23837402
151	0x3d1707f1	0.036872808
152	0xbc970bbc	-0.018438213
153	0x3d0321a7	0.032014515
154	0xbde5db2c	-0.11223444
155	0xbe7fa6a7	-0.24965917
156	0x3ddd8c9f	0.10817837
157	0xbcb4d40f	-0.022073774
158	0x3e451cd0	0.19249272
159	0x3e315156	0.17316183
160	0x3de68737	0.11256259
161	0x3d9f0f5a	0.077666
162	0x3e8bdde5	0.2731773
163	0xbe15cdb6	-0.14629254
164	0xbdbb95dc	-0.09159443
165	0xbdf0d0c6	-0.117585704
166	0x3e235df1	0.15953805
167	0xbdbd85e4	-0.09254053
168	0x3d538c72	0.05164761
169	0x3e24cd14	0.16093856
170	0x3ba4dbf8	0.005031105
171	0x3d3269b8	0.043557853
172	0xbb89d544	-0.0042063314
173	0x3dc58582	0.09644605
174	0xbe7fe8dd	-0.24991174
175	0xbbd81598	-0.006594371
176	0xbea87f07	-0.32909414
177	0x3e0a10a2	0.13482907
178	0xbe908285	-0.28224578
179	0x3e10e991	0.14151599
180	0xbe90418a	-0.28175002
181	0xbd3a0c65	-0.045421977
182	0xbea94674	-0.33061564
183	0x3b8d4b1a	0.0043119313
184	0x3d6430f5	0.05571075
185	0x3e4400bf	0.1914091
186	0x3d0a54c0	0.03377223
187	0x3e802191	0.2502561
188	0x3e819fb5	0.2531716
189	0x3b8781e1	0.004135356
190	0xbe26f95a	-0.16306058
191	0xbe0c1fba	-0.13683978
192	0xbcda8475	-0.026674489
193	0xbdc335fc	-0.09531781
194	0x3d07c351	0.033145253
195	0xbe6b56e4	-0.22982365
196	0xbd103ace	-0.03521233
197	0x3dbb153b	0.09134909
198	0xbe30a6fd	-0.17251201
199	0x3da96116	0.08270471
200	0xbd6919d9	-0.056909416
201	0xbd924b94	-0.07143322
202	0x3d276d90	0.04087597
203	0x3e1b4c21	0.1516576
204	0x3deca974	0.11555758
205	0xbc614f27	-0.013751782
206	0xbe4bac22	-0.19889882
207	0x3d4cdb03	0.050013553
208	0x3d9d46e5	0.07679538
209	0xbd7ce2de	-0.061739795
210	0x3e14e07a	0.14538756
211	0xbdbad761	-0.091231115
212	0x3e434f97	0.1907333
213	0xbdfff4a1	-0.12497831
214	0x3e307dd3	0.17235498
215	0xbe100259	-0.14063396
216	0x3dfde872	0.12397851
217	0x3d6c4d63	0.05769099
218	0x3d0e56fd	0.034750927
219	0xbd84d5f5	-0.064861216
220	0x3dd03503	0.10166361
221	0x3c127aa5	0.008940374
222	0xbe266298	-0.16248548
223	0xbe1f3ca6	-0.1555048
224	0xbd1133b7	-0.03544971
225	0xbc80fcba	-0.01574551
226	0xbe3652c6	-0.17805013
227	0xbcd49b3f	-0.025952933
228	0xbde4ef41	-0.111784466
229	0x3dc322dc	0.09528133
230	0xbb1e496b	-0.0024152647
231	0xbe0f64a6	-0.14003238
232	0xbe17b871	-0.14816453
233	0x3d73733b	0.059436064
234	0xbe8be781	-0.2732506
235	0x3d9ee24d	0.07758007
236	0xbdfc6bc2	-0.12325241
237	0xbe3335b6	-0.17500958
238	0xbe26320e	-0.16230032
239	0x3de654fa	0.11246677
240	0x3dce82ef	0.10083567
241	0x3e6362c1	0.2220564
242	0xbd856c5f	-0.06514811
243	0xbdde43c1	-0.10852767
244	0xbd14b49e	-0.036305062
245	0xbe85c9b9	-0.26130465
246	0x3a135e83	0.00056216883
247	0xbbb59851	-0.005541839
248	0x3e08c7c7	0.13357459
249	0xbe858c90	-0.26083803
250	0x3d92b9cc	0.07164344
251	0x39e3efda	0.00043475517
252	0xbe828b66	-0.25496978
253	0x3dd34583	0.10315993
254	0xbdbb83a8	-0.09155971
255	0x3d436ec8	0.04771307

bias f4 [64]
0	0x3d993457	0.07480686
1	0x3dab2ae5	0.08357791
2	0xbe116a69	-0.14200749
3	0xbdc76675	-0.09736339
4	0x3d9c15a1	0.07621313
5	0x3cd6bb9d	0.026212508
6	0xbc7845fe	-0.015153406
7	0xbda39593	-0.079875134
8	0xbe026d2d	-0.1273696
9	0x3d8bcb35	0.06825868
10	0x3bcfe17b	0.006344018
11	0x3d39ccb7	0.045361247
12	0x3ccd8223	0.025086468
13	0xbd859827	-0.065231614
14	0xbc94f1b9	-0.018181669
15	0x3deb3252	0.11484207
16	0x3c2febce	0.010737373
17	0x3db3dbc7	0.087821536
18	0x3cead47e	0.028665777
19	0x3d9fa924	0.07795933
20	0xbd95704d	-0.0729681
21	0x3d833e48	0.064083636
22	0xbcf4e768	-0.0298955
23	0x3d4f47c9	0.05060557
24	0x3cd33968	0.02578421
25	0xbd0b60c5	-0.034027833
26	0x3d86bfc5	0.06579546
27	0x3cfc4d70	0.030798644
28	0xbb781b4b	-0.0037858065
29	0x3d951a8f	0.07280456
30	0xbcaef836	-0.02135859
31	0x3e15b3df	0.14619397
32	0x3d2b18eb	0.04177181
33	0x3e04884e	0.12942621
34	0xbdc38dd0	-0.09548533
35	0x3cd5a21c	0.026078276
36	0x3d18f2b4	0.037340835
37	0x3da8bdf8	0.08239359
38	0x3cd210a0	0.025642693
39	0x3a92554e	0.0011164339
40	0x3d36220d	0.044466067
41	0xbe6bf096	-0.23040995
42	0xbdae5c07	-0.085136466
43	0xbdc1e33f	-0.09467172
44	0x3d703ed5	0.05865367
45	0xbd514909	-0.051095042
46	0xbd33cd0e	-0.043896727
47	0x3df5f3e8	0.12009412
48	0x3c16eba1	0.009211452
49	0x3d97e8ac	0.074174255
50	0xbd031397	-0.032001104
51	0xbd612f18	-0.054976553
52	0x3c82c02a	0.015960772
53	0x3cad89ce	0.021183874
54	0x3e214f55	0.15752919
55	0x3db816a6	0.08988695
56	0xbdac29ff	-0.084064476
57	0x3e00fd63	0.1259666
58	0x3d1d3d93	0.0383888
59	0xbbb6eab9	-0.0055821803
60	0x3de70b8c	0.11281499
61	0x3cd17b6f	0.025571553
62	0x3d723fcb	0.05914287
63	0x3d4cdde0	0.050016284

weight f4 [4, 64]
0	0xbea522bb	-0.3225306
1	0x3edad7cb	0.42742762
2	0x3f2b99fe	0.6703185
3	0x3ebaf6d4	0.3651644
4	0xbe8a7cee	-0.2704844
5	0xbb8bae51	-0.0042627235
6	0xbdfc13c5	-0.12308458
7	0xbf238fd0	-0.63891315
8	0x3ddf4097	0.109009914
9	0x3e9ad5c4	0.30241215
10	0x3ec7aae0	0.38997555
11	0xbe3f76c4	-0.18697649
12	0xbe08de79	-0.13366117
13	0x3e3a6317	0.18201862
14	0x3cabfd08	0.020994678
15	0xbe310ef5	-0.17290862
16	0xbf279d88	-0.6547475
17	0xbf275a39	-0.65372044
18	0x3edac289	0.42726544
19	0xbed0fbe1	-0.40817168
20	0x3b06b5a8	0.0020555053
21	0x3f0cb1b8	0.5495868
22	0xbea82f49	-0.32848576
23	0x3ea6e930	0.32599783
24	0xbdb395f1	-0.087688334
25	0x3e2b7c5b	0.16746657
26	0x3dc71e99	0.09722633
27	0x3f0ba4ab	0.5454814
28	0xbee3c1c1	-0.4448376
29	0xbf3267f9	-0.696899
30	0x3ebf7309	0.37392452
31	0xbe04a3fc	-0.1295318
32	0x3d98547b	0.07437988
33	0xbe0c9e36	-0.13732228
34	0x3f05b87a	0.52234614
35	0xbe3167ae	-0.17324707
36	0xbdfa6819	-0.12226886
37	0x3d5338ab	0.051567715
38	0xbd069cf6	-0.032864533
39	0x3ef05716	0.4694144
40	0x3e27841f	0.16358994
41	0x3f67b925	0.90516883
42	0xbd72e527	-0.059300568
43	0x3f873f4d	1.0566193
44	0x3f6ec3db	0.932676
45	0xbd93e674	-0.0722169
46	0xbd2b04a5	-0.041752476
47	0x3ebf3a2a	0.37349063
48	0xbee8c617	-0.4546363
49	0x3dbbc41b	0.091682635
50	0x3f86f8e1	1.0544702
51	0xbeb6e78b	-0.35723528
52	0x3ece642f	0.4031081
53	0x3e9dfda5	0.30857578
54	0xbe3e915f	-0.18610142
55	0xbee6fe3f	-0.4511585
56	0xbcbfa4f8	-0.023394093
57	0xbe42dce4	-0.19029576
58	0xbe8c2910	-0.27375078
59	0x3da5e1f0	0.08099735
60	0xbe842dea	-0.2581628
61	0x3c59906a	0.01327906
62	0x3e075a19	0.13217963
63	0xbe9f4a72	-0.31111485
64	0xbe6f35c7	-0.23360358
65	0x3e1ddb53	0.15415697
66	0xbd115ef0	-0.03549093
67	0xbeee5589	-0.46549633
68	0x3e09bac4	0.13450152
69	0x3c3050be	0.010761438
70	0x3f08772f	0.5330686
71	0xbece2931	-0.40265802
72	0x3f07402f	0.5283231
73	0xbe67c7f6	-0.22634873
74	0xbd35b1c2	-0.044358976
75	0xbe3654a9	-0.17805733
76	0xbe33d048	-0.17559922
77	0x3e970c74	0.29501688
78	0x3e0ec2d4	0.13941509
79	0xbe1a6310	-0.15076852
80	0xbee5ccaf	-0.44882724
81	0xbe6ff78d	-0.23434277
82	0xbe31ddaa	-0.17369714
83	0xbd2b1e57	-0.04177698
84	0x3e8aa4a4	0.27078736
85	0xbcb288c0	-0.021793723
86	0xbe0ba802	-0.13638309
87	0xbe84c7ed	-0.2593378
88	0xbd296783	-0.041358482
89	0x3e8a7c1b	0.2704781
90	0xbd5eff4e	-0.054442696
91	0x3e459eda	0.19298878
92	0xbe3bdf75	-0.18346961
93	0xbe570d39	-0.21001138
94	0x3e92e93b	0.28693566
95	0xbdcc326f	-0.09970557
96	0xbd307168	-0.043076903
97	0xbe1cb690	-0.15304017
98	0x3f271a9e	0.6527499
99	0x3e961661	0.2931395
100	0xbdb30018	-0.08740252
101	0xbe97b4d8	-0.2963016
102	0x3e3b4055	0.1828626
103	0xbddca12f	-0.10772931
104	0xbe234594	-0.1594451
105	0x3db059e0	0.08610892
106	0x3df902cc	0.121587366
107	0x3ea28775	0.3174397
108	0xbe868780	-0.26275253
109	0x3eebbfce	0.46044773
110	0x3eb2b15a	0.34900934
111	0xbec2e4ee	-0.38065284
112	0x3ec0f3e6	0.3768608
113	0x3d9bf90a	0.0761586
114	0xbe077d04	-0.13231283
115	0x3eb70d94	0.35752547
116	0x3e8ad54f	0.27115867
117	0x3e13b6dd	0.14425226
118	0xbd80920d	-0.06277857
119	0x3ebc556c	0.36783922
120	0x3e87b7e6	0.2650749
121	0xbe428c60	-0.18998861
122	0xbe8f7dff	-0.28025815
123	0x3e2381a9	0.1596743
124	0x3e06cef9	0.13164891
125	0xbe1568f2	-0.14590815
126	0xbe6569cb	-0.22403638
127	0x3f378183	0.71681994
128	0xbe4702ea	-0.19434705
129	0x3edbb950	0.4291482
130	0x3d662dc0	0.056195974
131	0x3eb0aa67	0.34505007
132	0xbdb946f5	-0.09046737
133	0x3e7c655d	0.24648042
134	0xbecc3a6a	-0.39888316
135	0xbcc96525	-0.024584362
136	0xbe800d0e	-0.2500996
137	0xbe25a96c	-0.1617791
138	0xbe2c30fa	-0.16815558
139	0x3e81c086	0.25342196
140	0xbee7f967	-0.45307466
141	0x3e86ddbf	0.26341054
142	0x3cd13fd0	0.025543123
143	0x3ab58f6a	0.0013851945
144	0xbf53c41c	-0.82721114
145	0xbeacbf0c	-0.33739507
146	0xbea14e8a	-0.31505233
147	0xbde89257	-0.11356037
148	0x3e2b835a	0.16749325
149	0x3e93e2d5	0.28883997
150	0x3e81b23c	0.25331295
151	0x3d577035	0.052597243
152	0xbfb4647b	-1.4093164
153	0x3e2897de	0.16464183
154	0x3e9100c7	0.28320906
155	0x3e143272	0.14472368
156	0x3dabf2ac	0.08395895
157	0xbeea2273	-0.45729408
158	0xbe476c08	-0.19474804
159	0xbe9fb8b9	-0.3119562
160	0x3efcef70	0.49401426
161	0xbe52574e	-0.20541117
162	0xbefe3fa7	-0.49657938
163	0xbe85ce0b	-0.2613376
164	0x3eb5921c	0.35463035
165	0xbe83f628	-0.2577374
166	0x3e5ef46b	0.21772926
167	0xbf454102	-0.7705232
168	0xbed94e70	-0.42442656
169	0xbef9d8aa	-0.48798114
170	0xbbbf1415	-0.0058312514
171	0xbf06487e	-0.52454364
172	0xbcc34ad3	-0.02383939
173	0x3e232084	0.15930372
174	0x3e97cb29	0.29647186
175	0xbc6f0a62	-0.014589878
176	0x3e9db641	0.3080311
177	0x3df52050	0.11969054
178	0xbca9c0e9	-0.02072187
179	0xbe1a9850	-0.15097165
180	0xbf012543	-0.5044748
181	0xbf15de73	-0.58542556
182	0x3e750ea0	0.2393136
183	0xbe8e1bef	-0.27755687
184	0xbeffe7cb	-0.49981532
185	0xbf3c0483	-0.73444384
186	0xbf0936fa	-0.5359951
187	0xbdf7afdf	-0.120940916
188	0xbe1278f3	-0.14303951
189	0x3e8da676	0.27666062
190	0x3e836f67	0.2567093
191	0xbe79256a	-0.24330679
192	0xbec34070	-0.381351
193	0xbeef38dd	-0.4672307
194	0xbeadb3bc	-0.3392619
195	0x3e8796b8	0.26482177
196	0x3eaa2643	0.33232316
197	0xbe41227b	-0.1886081
198	0xbe1694b9	-0.1470517
199	0xbe1b9386	-0.15192994
200	0x3f963047	1.1733483
201	0x3e55e856	0.2088941
202	0x3e45fc83	0.19334607
203	0x3ea7877f	0.32720563
204	0x3ecbdf04	0.39818585
205	0xbec822c6	-0.3908903
206	0xbf44a0f4	-0.76808095
207	0xbefc6a1d	-0.49299708
208	0x3dc3f872	0.095688716
209	0xbe6161ea	-0.22010008
210	0xbcd9eacb	-0.026601216
211	0xbe803f6a	-0.2504838
212	0xbe1f7c36	-0.15574726
213	0xbe236c2f	-0.15959238
214	0x3dfb54d5	0.1227204
215	0xbed10f5c	-0.4083203
216	0xbead5d24	-0.33860123
217	0x3e3a7989	0.18210424
218	0xbe960769	-0.29302529
219	0xbd92d465	-0.07169417
220	0xbeb95e91	-0.3620496
221	0x3ef322f7	0.47487614
222	0xbc2be666	-0.010491943
223	0xbeb8ccd6	-0.36093777
224	0xbf6904b4	-0.910228
225	0x3e94dbb4	0.2907387
226	0x3f016392	0.5054256
227	0xbeb0ff2a	-0.34569675
228	0xbd1ef5de	-0.038808696
229	0x3ea666be	0.3250026
230	0x3e68892f	0.22708581
231	0xbeaeffde	-0.34179586
232	0xbe52b78a	-0.20577827
233	0x3e169b25	0.1470762
234	0xbd613563	-0.054982554
235	0x3d13b1e6	0.03605833
236	0xbe85ea8b	-0.26155505
237	0xbf17675c	-0.5914209
238	0x3f315442	0.6926919
239	0xbe52fb05	-0.20603569
240	0x3eae3f3d	0.34032622
241	0x3eac2df3	0.33628806
242	0x3e0581cf	0.130378
243	0x3da3c1d2	0.07995953
244	0xbeac266f	-0.33623073
245	0x3f681058	0.9064994
246	0x3ea67d63	0.32517537
247	0xbe1dd90e	-0.15414831
248	0xbdb7ecb0	-0.089806914
249	0x3ee0fe7b	0.43944153
250	0x3e8e7923	0.27826795
251	0x3e95a2b3	0.29225692
252	0xbea9a9ab	-0.3313726
253	0x3e6aadc4	0.22917849
254	0xbed4fa1a	-0.41597062
255	0x3f5b4c8e	0.8566369

bias f4 [4]
0	0xbe27eed9	-0.16399707
1	0x3ca28ab1	0.019841524
2	0x3d3ed3dc	0.046588764
3	0xbd8e6ef5	-0.06954757

weight f4 [128, 24]
0	0xbc8e16ca	-0.017344851
1	0xbd96aa88	-0.07356745
2	0xbeed4ad9	-0.46346167
3	0x3e8965ae	0.26835388
4	0x3e41c032	0.18920973
5	0xbb884616	-0.0041587455
6	0xbe4fa840	-0.20279026
7	0xbe2594c5	-0.16170032
8	0x3e3b1e06	0.18273172
9	0xbe2197dd	-0.15780587
10	0xbe7fa4ae	-0.24965164
11	0xbe40e24d	-0.18836327
12	0x3d01450d	0.031559993
13	0x3d981368	0.074255764
14	0xbe4f057b	-0.20216934
15	0x3d22b65d	0.039724696
16	0x3cd0f76b	0.025508603
17	0xbc34f748	-0.011045285
18	0xbc21e48a	-0.009881148
19	0x3cb2284b	0.021747729
20	0xbe713660	-0.23555899
21	0x3d318eac	0.043348953
22	0xbd1f302c	-0.0388643
23	0x3bd1dead	0.006404719
24	0xbf091a43	-0.535557
25	0xbe28f89c	-0.16501087
26	0x3ec65597	0.38737175
27	0xbe9bc47f	-0.30423352
28	0x3de869e6	0.113483235
29	0xbe2fcf04	-0.17168814
30	0xbd25931e	-0.040423505
31	0xbdfc9da7	-0.12334757
32	0x3e94c36b	0.29055342
33	0xbe1fb506	-0.15596399
34	0x3cd4f842	0.025997285
35	0xbe8c660c	-0.27421606
36	0x3e004861	0.1252761
37	0xbd614009	-0.05499271
38	0xbe114768	-0.14187396
39	0x3da1aeac	0.07894644
40	0xbcd810ae	-0.026375141
41	0x3e0d8e99	0.13823928
42	0x3d7f3792	0.062308855
43	0xbd13546c	-0.035969183
44	0xbe105d47	-0.14098082
45	0x3d9344cd	0.07190857
46	0x3b103e0e	0.0022009644
47	0x3da7ee08	0.08199698
48	0x3d8df8b2	0.069322005
49	0xbe61f081	-0.22064401
50	0x3d8adedd	0.06780789
51	0x3e0d145c	0.13777298
52	0xbc9b9bb3	-0.018995142
53	0x3eb9895d	0.36237612
54	0x3e175b2b	0.14780872
55	0x3d117924	0.03551592
56	0x3ed31cec	0.41233003
57	0xbe0c8b22	-0.1372495
58	0x3e405472	0.18782213
59	0x3da6c6e5	0.08143405
60	0xbeb78d0b	-0.35849795
61	0x3dcc5057	0.09976261
62	0x3d39e3d6	0.045383297
63	0xbd834427	-0.064094834
64	0xbdd2cddd	-0.102931716
65	0x3d08df2d	0.033415962
66	0x3d75f70a	0.060050048
67	0x3e162fbb	0.14666645
68	0xbd70de2c	-0.05880563
69	0xbd8385fe	-0.06422041
70	0xbe03a890	-0.1285727
71	0x3dca9ae7	0.098928265
72	0xbe3b48d6	-0.18289503
73	0xbdbe2ced	-0.09285913
74	0xbd8e394b	-0.069445215
75	0xbd30955d	-0.043111194
76	0x3c835692	0.01603249
77	0x3db2f1e8	0.08737546
78	0xbdb7b514	-0.08970085
79	0x3e009aef	0.12559102
80	0x3eb7a905	0.3587114
81	0x3e316348	0.17323029
82	0x3e945d9b	0.28977665
83	0xbe930ed1	-0.28722242
84	0xbe3dbba2	-0.18528607
85	0x3ec582fb	0.38576493
86	0x3dc87a2e	0.09788929
87	0xbdaa268e	-0.08308135
88	0xbcc93a24	-0.024563856
89	0xbe5869b4	-0.21134073
90	0xba90f485	-0.0011059201
91	0xbd2fb86f	-0.0429005
92	0xbe089184	-0.1333676
93	0xbddd1197	-0.107943706
94	0x3d090706	0.033453964
95	0x3c747775	0.014921059
96	0xbeef7278	-0.4676702
97	0x3e67462b	0.2258536
98	0x3e48f12d	0.19623251
99	0xbeb4f14d	-0.35340348
100	0x3ae090d1	0.0017133002
101	0x3daf36e6	0.08555393
102	0x3e800cf3	0.2500988
103	0x3dba3fb2	0.0909418
104	0x3c90d76d	0.017680848
105	0x3f0916b7	0.53550285
106	0x3b7394ff	0.0037167666
107	0xbd76ed0c	-0.06028466
108	0x3ddeeafb	0.10884663
109	0x3e6117eb	0.2198178
110	0x3db9838e	0.09058295
111	0x3d5fa8cc	0.054604337
112	0x3e48c648	0.19606888
113	0x3e1cf0b9	0.15326203
114	0x3d4918f9	0.04909608
115	0x3e2d949c	0.16951221
116	0xbdccd346	-0.10001235
117	0xbc926189	-0.017868774
118	0x3e5a0a46	0.21292982
119	0xbd9a0e4f	-0.075222604
120	0x3b522fa0	0.0032071844
121	0xbd26edd1	-0.040754143
122	0xbea64b63	-0.3247939
123	0x3d5f79e8	0.05455962
124	0x3e82ca66	0.25545043
125	0x3ec21576	0.37906998
126	0xbe7ff9a6	-0.24997577
127	0x3e8f9d63	0.28049764
128	0x3eba6bee	0.3641047
129	0x3dfdd51e	0.123941645
130	0xbd938b37	-0.072042875
131	0xbea0c3fd	-0.31399527
132	0x3c812b6f	0.015767781
133	0xbd6ee23a	-0.058321215
134	0xbe773f50	-0.24145246
135	0xbddee8e6	-0.108842656
136	0xbccf365d	-0.025294477
137	0xbdd1d836	-0.10246317
138	0xbe166f2c	-0.14690846
139	0xbe499408	-0.19685376
140	0xbd6259ce	-0.055261426
141	0x3bc171f3	0.0059034764
142	0x3d1941ad	0.03741615
143	0x3d63e4ef	0.05563825
144	0xbe264c17	-0.16239963
145	0xbe7f9979	-0.24960889
146	0x3e460d2b	0.1934096
147	0x3e6b17c4	0.22958285
148	0x3f0a6512	0.5406047
149	0x3e4e0194	0.2011779
150	0x3e5928ba	0.21206942
151	0xbdf35470	-0.118813396
152	0xbe308b25	-0.1724058
153	0xbed7b61a	-0.4213112
154	0x3e639ed4	0.22228557
155	0x3d6e997e	0.05825185
156	0xbcaea99d	-0.021321112
157	0xbd23db22	-0.040003903
158	0xbe80cc60	-0.25155926
159	0xbe0277c7	-0.12741004
160	0xbe04cbbb	-0.12968342
161	0xbe71e356	-0.23621878
162	0xbe503354	-0.2033208
163	0xbcc201c5	-0.023682484
164	0xbe7b22c1	-0.24524976
165	0xbbc82b4e	-0.006108678
166	0x3e15c14a	0.14624515
167	0x3cbda20f	0.023148565
168	0xbdc940be	-0.09826802
169	0xbd521555	-0.051289875
170	0x3db9438d	0.090460874
171	0x3ec0b70a	0.37639648
172	0xbdda916b	-0.106722675
173	0xbe9010a2	-0.2813769
174	0x3ef47baa	0.47750598
175	0xbe9ee265	-0.310321
176	0x3e0d2a1d	0.13785596
177	0x3e2fccc0	0.1716795
178	0xbe1ec463	-0.15504603
179	0x3dd08fd8	0.10183686
180	0x3e2676de	0.16256282
181	0x3d89e742	0.06733562
182	0x3d4462a1	0.047945622
183	0x3d84e8bc	0.06489703
184	0xbc8926d2	-0.016742144
185	0x3de6a0cc	0.11261138
186	0x3ead073e	0.33794588
187	0x3dce401a	0.1007082
188	0x3e8fa56a	0.28055888
189	0x3e45004b	0.19238393
190	0x3e0b0061	0.13574363
191	0x3cf12bba	0.029439796
192	0xbcf48105	-0.029846678
193	0xbd9799f1	-0.07402409
194	0x3dd3648a	0.10321911
195	0x3c908bab	0.017644724
196	0xbe2dff7f	-0.16991995
197	0x3ded3e52	0.11584152
198	0xbdc826e9	-0.097730465
199	0x3e4e00ed	0.2011754
200	0xbcf1ec6d	-0.029531682
201	0x3e3ad811	0.18246485
202	0xbe449dd6	-0.19200835
203	0x3e3c1f8c	0.18371409
204	0x3d0b7689	0.03404859
205	0x3d62320a	0.055223502
206	0x3ca550c8	0.020180121
207	0x3df5d582	0.12003614
208	0x3db9aeea	0.09066565
209	0xbd80af0c	-0.062833875
210	0x3e5e9918	0.21738088
211	0x3e4d90c9	0.20074762
212	0xbe032a05	-0.12808998
213	0xbde45995	-0.11149899
214	0x3e40e96a	0.1883904
215	0x3e8d84f7	0.27640507
216	0x3c1f956c	0.009740215
217	0xbe5f8acf	-0.21830295
218	0x3e74b36a	0.23896566
219	0xbddb71b5	-0.10715047
220	0xbeb86b53	-0.36019382
221	0xbdff035f	-0.12451815
222	0xbe2ed571	-0.17073609
223	0xbdef6051	-0.11688293
224	0xbc2631de	-0.010143725
225	0xbe6d08c2	-0.23147872
226	0xbdf3429c	-0.11877939
227	0x3eb2c63c	0.34916866
228	0x3e810847	0.25201628
229	0x3ec2d007	0.38049337
230	0x3e5aebf2	0.21379068
231	0xbddbcf80	-0.10732937
232	0x3d810ac8	0.063008845
233	0x3e4a2391	0.1974013
234	0x3e2c28a4	0.16812378
235	0xbe2c1c9c	-0.16807789
236	0x3ce10765	0.027469346
237	0x3d07f3eb	0.033191603
238	0x3d3aa0cc	0.045563504
239	0x3de648d7	0.11244362
240	0xbe6fe688	-0.23427784
241	0xbe019bcb	-0.12657087
242	0x3e939652	0.28825623
243	0x3e7b1566	0.24519882
244	0x3e0cad74	0.13738042
245	0xbd69f1ff	-0.05711555
246	0x3eae1d14	0.3400656
247	0xbe9eefcb	-0.31042323
248	0xbeee2401	-0.46511844
249	0x3eb36b8e	0.35042995
250	0xbe39277d	-0.1808147
251	0xbe116d89	-0.1420194
252	0x3eabe532	0.335733
253	0x3df741c8	0.12073094
254	0xbe4db5ca	-0.20088878
255	0xbe50b098	-0.20379865

bias f4 [128]
0	0x3e041f7c	0.12902635
1	0x3dcaf5c5	0.09910158
2	0xbdc0bc88	-0.094109595
3	0x3e4421fb	0.19153588
4	0x3ca31b01	0.019910337
5	0xbce0d76c	-0.027446471
6	0x3e6c0f7a	0.23052779
7	0x3e563da5	0.20921953
8	0x3e00d367	0.12580644
9	0xbe24a55b	-0.16078703
10	0xbbb1637f	-0.005413472
11	0xbd67b455	-0.056568462
12	0xbd0592ab	-0.032610577
13	0xbeaac2b8	-0.33351684
14	0x3e54868a	0.20754448
15	0xbe117ddc	-0.14208168
16	0x3e4bcdd7	0.1990274
17	0x3e0364a8	0.12831366
18	0x3de61810	0.11235058
19	0xbe021e21	-0.12706806
20	0x3da614e9	0.08109457
21	0x3e0bb32e	0.1364257
22	0x3ca9d861	0.02073306
23	0xbde1fe2d	-0.11034808
24	0x3e58274b	0.21108739
25	0x3e0f0e73	0.13970356
26	0x3e2ef44f	0.17085384
27	0x3e01cf38	0.12676704
28	0xbde63905	-0.11241344
29	0xbd0512fc	-0.032488808
30	0xbd93581b	-0.07194539
31	0xbc61f4f6	-0.013791313
32	0x3e51ec85	0.20500381
33	0xbe19ab00	-0.15006638
34	0x3e3a2a3d	0.18180175
35	0x3d2cb03e	0.042160265
36	0x3e5c6321	0.2152219
37	0x3d4b0863	0.049568545
38	0x3e39cc3e	0.18144318
39	0xbd6b1d8c	-0.057401225
40	0xbda1dfab	-0.079039894
41	0xbd251cf4	-0.040310815
42	0xbd878514	-0.066171795
43	0xbceca7f2	-0.028888676
44	0xbb389d4d	-0.002816993
45	0x3dd197d9	0.10234041
46	0x3db3da59	0.08781881
47	0x3c63dff6	0.013908377
48	0x3e0920d5	0.1339143
49	0x3e0fbab4	0.14036065
50	0x3e107326	0.14106426
51	0xbe34df97	-0.17663418
52	0xbcc33250	-0.023827702
53	0x3d79df25	0.061003823
54	0x3e80a588	0.2512629
55	0xbdb58082	-0.088624015
56	0x3d933103	0.071870826
57	0xbdc6905e	-0.096955046
58	0x3c909084	0.017647035
59	0xbd629a04	-0.055322662
60	0x3e2943cc	0.16529769
61	0x3dd65a60	0.104664564
62	0x3e516c85	0.20451553
63	0x3da8efaf	0.08248841
64	0x3d9b8217	0.07593172
65	0x3d8ccfd5	0.06875578
66	0xbd9e0e55	-0.07717577
67	0xbe0413cc	-0.12898177
68	0x3e6b8304	0.22999197
69	0xbdc3e437	-0.09565013
70	0x3e961612	0.29313713
71	0xbc94cc69	-0.018163877
72	0x3e124f8c	0.14288157
73	0xbd6e45d0	-0.058172047
74	0x3c9ed301	0.019387724
75	0x3dcbc8a4	0.099503785
76	0xbc74b6c0	-0.014936149
77	0x3d97e1bf	0.074161045
78	0xbdb2bd5f	-0.08727526
79	0xbc921bc7	-0.01783551
80	0x3e3933a0	0.180861
81	0x3e022573	0.12709598
82	0x3d753587	0.0598655
83	0xbd1a8388	-0.037723094
84	0xbe0e7772	-0.13912752
85	0xbdc94a73	-0.09828653
86	0x3e0c7489	0.1371633
87	0xbc87df86	-0.016586076
88	0x3d935a22	0.07194926
89	0xbda24e99	-0.079251476
90	0x3cc7e856	0.024402779
91	0x3cee0810	0.029056579
92	0xbe5d24c9	-0.21596064
93	0x3e83231f	0.25612733
94	0x3bd5f014	0.0065288637
95	0x3e717215	0.23578675
96	0x3e0a05f9	0.13478841
97	0x3e522949	0.20523562
98	0xbe494770	-0.19656157
99	0x3e088d58	0.13335168
100	0xbd304882	-0.0430379
101	0x3d2dc3d0	0.04242307
102	0xbcd9a550	-0.026568085
103	0x3d8e7e4a	0.069576815
104	0xbd8680ba	-0.065675214
105	0x3b70d7d4	0.0036749737
106	0x3dcc31de	0.09970449
107	0x3e490922	0.1963239
108	0x3e90eaf5	0.28304258
109	0x3e64eb66	0.22355422
110	0xbdfe9507	-0.124307685
111	0x3e258736	0.1616486
112	0xbdb5c383	-0.088751815
113	0xbd0a6dce	-0.033796124
114	0xbe1072a8	-0.14106238
115	0xbd30a2f1	-0.043124143
116	0xbd5bd063	-0.05366553
117	0x3e66103d	0.22467132
118	0x3d1fe818	0.0390397
119	0x3e001997	0.12509762
120	0x3e3311c5	0.17487247
121	0x3d8d40f5	0.06897155
122	0x3e909447	0.28238127
123	0x3e132824	0.14370781
124	0x3caccafa	0.02109288
125	0x3da6f5fa	0.08152385
126	0x3e6aadac	0.22917813
127	0xbd5735c0	-0.052541494

weight f4 [64, 128]
0	0x3db36d26	0.08761053
1	0xbe9d2675	-0.30693403
2	0xbba6b125	-0.0050870352
3	0x3e110ab5	0.1416424
4	0xbd7e244b	-0.06204633
5	0xbe9c7f86	-0.30566043
6	0x3dd10b7d	0.10207269
7	0xbd569431	-0.05238742
8	0xbd0361c7	-0.03207567
9	0x3d16dfde	0.03683459
10	0xbb7c110b	-0.0038462307
11	0xba8300a1	-0.0009994694
12	0x3d8b171c	0.06791517
13	0x3dc8277b	0.09773155
14	0x3e267983	0.1625729
15	0xbdf87eff	-0.121335976
16	0xbeb585c6	-0.35453624
17	0xbca49c36	-0.020094018
18	0x3d057829	0.032585297
19	0xbe1b6786	-0.1517621
20	0x3dbbdbd2	0.09172787
21	0xbcb63623	-0.022242611
22	0xbcdc2b16	-0.026876014
23	0xbd35d59d	-0.04439317
24	0xbd30b929	-0.043145332
25	0xbe94b21f	-0.29042146
26	0xbdc8296a	-0.09773524
27	0x3d426787	0.047462013
28	0x3d2592ea	0.04042331
29	0x3ac9eaf5	0.0015405106
30	0x3db78d73	0.08962526
31	0x3e3c1183	0.18366055
32	0x3e1babf9	0.15202321
33	0xbeb20df0	-0.34776258
34	0xbd89d222	-0.06729533
35	0x3d84e884	0.06489661
36	0x3e175550	0.14778638
37	0xbe57c53b	-0.21071331
38	0x3dd4c060	0.10388255
39	0x3d482b9b	0.04886971
40	0xbc0e541a	-0.008687044
41	0x3e2c2bd9	0.16813602
42	0xbee755dc	-0.45182693
43	0xbe19cad5	-0.1501878
44	0x3e40e58d	0.18837567
45	0x3ce2b222	0.027672831
46	0x3d88a649	0.066723414
47	0x3d634482	0.055485256
48	0x3e6236c7	0.22091208
49	0x3dc90214	0.098148495
50	0xbe136cfb	-0.14397041
51	0x3cfb5055	0.030677954
52	0xbe04bcc2	-0.1296263
53	0xbbf4f03b	-0.0074749268
54	0x3de9e00b	0.11419686
55	0x3ce871e1	0.028374614
56	0x3d99c6f5	0.07508651
57	0x3c6fd98c	0.01463927
58	0xbb1f8f75	-0.0024346982
59	0xbec33bdd	-0.3813161
60	0xbea9a217	-0.33131477
61	0x3e67a8b8	0.22622955
62	0xbe074964	-0.1321159
63	0x3e946f84	0.2899133
64	0x3e38edad	0.18059416
65	0xbdfa84c9	-0.12232358
66	0x3db2ddcb	0.0873371
67	0xbcd7b4c5	-0.026331315
68	0x3e3061a6	0.1722475
69	0xbdd494c0	-0.10379934
70	0x3e566594	0.20937186
71	0xbd66e651	-0.05637199
72	0xbd3b8f88	-0.04579118
73	0x3ad5c6a1	0.0016309806
74	0x3e16fb8b	0.14744394
75	0x3c9fa244	0.019486554
76	0x3e34f6e3	0.17672305
77	0xbdfb81d2	-0.12280621
78	0xbd11ecd9	-0.035626266
79	0xbdcbae0f	-0.099453084
80	0xbe0ef3f6	-0.13960251
81	0x3c824abf	0.015904782
82	0x3d0d12fd	0.034441937
83	0x3e1b665d	0.15175767
84	0xbd05e4b8	-0.032688826
85	0x3b6e180e	0.0036330256
86	0x3e3b9021	0.183167
87	0x3c3ca567	0.011514044
88	0x3d8b2bf4	0.06795493
89	0xbd6ff4d1	-0.058583084
90	0x3e2f62b0	0.1712749
91	0xbe4f963d	-0.20272155
92	0xbe8bc068	-0.27295232
93	0x3e18f00e	0.14935324
94	0x3c9275ab	0.017878374
95	0x3dafd062	0.08584668
96	0x3e6a3464	0.22871548
97	0x3c753a82	0.014967563
98	0x3dbca5b0	0.0921129
99	0x3e099709	0.13436522
100	0xbc508c8c	-0.0127288215
101	0x3e25175a	0.16122189
102	0xbd18c684	-0.037298694
103	0x3d997580	0.074931145
104	0xbe359d3d	-0.17735763
105	0x3d47e44c	0.048801705
106	0xbe243167	-0.1603447
107	0x3dba4d25	0.090967454
108	0x3e278bb1	0.16361882
109	0x3e69364e	0.22774622
110	0xbd1c3d04	-0.038144127
111	0xbe1bd85a	-0.1521925
112	0xbc2028d6	-0.009775361
113	0x3d7dbf5e	0.06195008
114	0xbea08fbf	-0.3135967
115	0x3e219d90	0.15782762
116	0xbe1fea37	-0.1561669
117	0xbb9e0308	-0.0048221387
118	0xbe530c79	-0.20610227
119	0xbd4695ff	-0.04848289
120	0xbd61bb9a	-0.05511055
121	0x3df3bfad	0.11901794
122	0xbd6425c3	-0.055700075
123	0x3c2e0d0e	0.01062323
124	0x3d053c33	0.032528114
125	0xbe8e9078	-0.27844596
126	0xbcf654b8	-0.030069694
127	0x3af207b0	0.0018465426
128	0x3dae6536	0.08515398
129	0x3d3cba45	0.046076078
130	0x3db59ac2	0.08867408
131	0xbe43b03e	-0.191102
132	0xbe87a46e	-0.26492637
133	0x3e0ab3ee	0.135452
134	0x3e517eea	0.2045857
135	0x3ca51225	0.020150254
136	0xbe843dfe	-0.25828546
137	0xbd055b42	-0.032557733
138	0xbde57769	-0.11204416
139	0xbde5deef	-0.11224162
140	0x3e67de01	0.22643282
141	0xbc965c37	-0.018354518
142	0x3d86f14c	0.065889925
143	0xbdd0a425	-0.10187558
144	0x3e4d762b	0.20064609
145	0x3d06140c	0.032733962
146	0x3db3a34d	0.087713815
147	0x3d365172	0.044511266
148	0x3e0008b6	0.12503323
149	0x3e8fe078	0.28100944
150	0xbe73d3c4	-0.23811251
151	0x3d18cc06	0.037303947
152	0xbc914f4b	-0.017738005
153	0x3d03a7df	0.032142516
154	0xbde5b8dc	-0.112169
155	0xbe7fa198	-0.24963987
156	0x3ddd2cd3	0.10799565
157	0xbcb2e562	-0.021837894
158	0x3e459d35	0.19298251
159	0x3e31ed8b	0.17375772
160	0x3de755d3	0.112956665
161	0x3da0d55f	0.07853197
162	0x3e8c1820	0.27362156
163	0xbe15d011	-0.14630152
164	0xbdbbc1bb	-0.091678105
165	0xbdf0212c	-0.11725077
166	0x3e240ae6	0.16019782
167	0xbdbcf035	-0.09225503
168	0x3d53e044	0.05172755
169	0x3e2578cd	0.16159363
170	0x3bad3d4b	0.0052868477
171	0x3d34c001	0.04412842
172	0xbb81689a	-0.003949237
173	0x3dc6c008	0.09704596
174	0xbe7f6692	-0.24941471
175	0xbbbe742c	-0.0058121886
176	0xbea84d33	-0.32871398
177	0x3e0a4e7a	0.13506499
178	0xbe905c23	-0.28195295
179	0x3e115267	0.1419159
180	0xbe9027d0	-0.28155375
181	0xbd393b84	-0.045222774
182	0xbea95407	-0.3307192
183	0x3b8cc108	0.004295472
184	0x3d64c8b1	0.055855457
185	0x3e445f78	0.19177043
186	0x3d0d1061	0.03443945
187	0x3e803916	0.25043553
188	0x3e81cb10	0.25350237
189	0x3b95ba26	0.0045693098
190	0xbe265b3a	-0.16245738
191	0xbe0bd772	-0.13656405
192	0xbcd9c1a0	-0.026581585
193	0xbdc2557c	-0.09488961
194	0x3d0b00ba	0.03393624
195	0xbe6b42b5	-0.22974665
196	0xbd0fb35b	-0.035083156
197	0x3dbc1ea2	0.0918553
198	0xbe303ac9	-0.17209925
199	0x3daae9f2	0.08345403
200	0xbd659ef2	-0.056059785
201	0xbd90d60e	-0.07072078
202	0x3d2a06d9	0.041510437
203	0x3e1bab9b	0.15202181
204	0x3ded3261	0.11581875
205	0xbc5bd90a	-0.013418445
206	0xbe4b303c	-0.19842619
207	0x3d4f3063	0.050583255
208	0x3d9e87e2	0.07740761
209	0xbd7bf268	-0.061510473
210	0x3e1570a8	0.14593756
211	0xbdb9e019	-0.09075946
212	0x3e43e720	0.19131136
213	0xbdffe930	-0.12495649
214	0x3e30bf82	0.17260554
215	0xbe0fc98f	-0.14041732
216	0x3dff47c5	0.12464861
217	0x3d6ee2b7	0.05832168
218	0x3d11242f	0.035434898
219	0xbd850a66	-0.06496124
220	0x3dd1242a	0.10211976
221	0x3c175e1a	0.009238744
222	0xbe25e346	-0.16199979
223	0xbe1eacb4	-0.15495569
224	0xbd114a5f	-0.035471316
225	0xbc7c9738	-0.015416913
226	0xbe364c6d	-0.17802592
227	0xbccf61fd	-0.02531528
228	0xbde3d54d	-0.11124668
229	0x3dc40af5	0.095724024
230	0xbb00972e	-0.001962136
231	0xbe0f518f	-0.13995956
232	0xbe17866c	-0.14797372
233	0x3d767436	0.06016942
234	0xbe8bb875	-0.27289167
235	0x3da0159e	0.07816623
236	0xbdfbb9dd	-0.1229131
237	0xbe330b41	-0.17484762
238	0xbe25bec0	-0.16186047
239	0x3de7cfef	0.11318957
240	0x3dcf349e	0.10117458
241	0x3e63dbd1	0.22251822
242	0xbd844865	-0.06459121
243	0xbddd4406	-0.1080399
244	0xbd144105	-0.03619482
245	0xbe85bcb4	-0.26120532
246	0x3a999e44	0.001172014
247	0xbbb3c908	-0.0054866113
248	0x3e092d53	0.13396196
249	0xbe853be8	-0.26022267
250	0x3d93e6ba	0.07221742
251	0x3a031030	0.00049996655
252	0xbe828322	-0.2549067
253	0x3dd428b0	0.10359323
254	0xbdbb51cc	-0.09146461
255	0x3d43634c	0.04770212

bias f4 [64]
0	0x3d980191	0.07422174
1	0x3dac60a3	0.084168695
2	0xbe116a5c	-0.14200729
3	0xbdc76061	-0.0973518
4	0x3d9bba9e	0.07603954
5	0x3cda8d9b	0.02667885
6	0xbc74cc0e	-0.014941229
7	0xbda44d17	-0.08022516
8	0xbe02a794	-0.12759238
9	0x3d8b3128	0.06796485
10	0x3bc7809e	0.0060883304
11	0x3d384100	0.044983864
12	0x3ccd877f	0.025089024
13	0xbd854e6a	-0.06509097
14	0xbc915eb4	-0.017745353
15	0x3deb633c	0.11493537
16	0x3c26960a	0.010167608
17	0x3db2c1c6	0.087283656
18	0x3cedf246	0.029046189
19	0x3d9e3b64	0.077261716
20	0xbd957048	-0.072968066
21	0x3d84c724	0.064832956
22	0xbcf78166	-0.03021307
23	0x3d4f340f	0.050586756
24	0x3cd0fa75	0.025510052
25	0xbd08063a	-0.033209063
26	0x3d879ea4	0.06622055
27	0x3d019966	0.031640433
28	0xbb7d7fc1	-0.0038680884
29	0x3d93d261	0.07217861
30	0xbcab0784	-0.020877607
31	0x3e152618	0.14565313
32	0x3d2c8a85	0.04212429
33	0x3e03bf1a	0.12865868
34	0xbdc39a76	-0.095509455
35	0x3cd79b60	0.026319206
36	0x3d1919ac	0.037378
37	0x3da78551	0.08179725
38	0x3cd5005e	0.026001152
39	0x3a7d90b7	0.0009672748
40	0x3d34d01c	0.04414378
41	0xbe6bfa02	-0.23044589
42	0xbdae5bf8	-0.085136354
43	0xbdc1be70	-0.09460151
44	0x3d716da1	0.05894244
45	0xbd4f92db	-0.05067716
46	0xbd323a3e	-0.043512575
47	0x3df54f80	0.11978054
48	0x3c16269c	0.009164479
49	0x3d98b004	0.07455447
50	0xbd01884c	-0.031624123
51	0xbd608a4e	-0.054819398
52	0x3c85bf9c	0.016326718
53	0x3caacf04	0.020850666
54	0x3e2110d1	0.15729071
55	0x3db825df	0.08991598
56	0xbdac2cbc	-0.0840697
57	0x3e0038e2	0.12521699
58	0x3d1ab425	0.037769455
59	0xbbae8804	-0.005326273
60	0x3de6ef91	0.112761624
61	0x3cd09f03	0.025466448
62	0x3d72b565	0.059255023
63	0x3d4cda6b	0.050012987
