Continuous Deep RL/bipedal_q4_latest.pt (torch, 672477 bytes, 44 tensors)

weight f4 [128, 24]
-0.3416503 1.448083 -0.44574973 0.091356575 0.23330495 -0.4612537 -0.4264583 -0.17199579
0.20392415 0.046443343 0.29647088 0.08756465 -0.17914411 0.20712666 -0.048820455 0.18230493
0.041500006 0.21857342 -0.05891617 0.097976066 0.020799499 -0.011956725 0.086392544 -0.18162882
0.21257924 0.42220002 -0.55957276 -0.079817265 -0.012852682 0.11437421 0.6312512 0.16304523
0.09551144 -0.5436634 -0.23197725 0.13858597 0.03092524 0.16694434 -0.11234399 -0.14315443
-0.2736414 -0.0062431553 -0.30156273 -0.25332987 -0.35481536 -0.33432314 -0.30396113 -0.01649591
-0.25517815 -1.0044616 0.83904225 -0.033724986 0.4780442 0.20409451 -0.076398455 0.10471466
-0.09118126 -0.71797806 -0.042441867 -0.31037468 0.03331641 0.3324145 0.0683517 0.16056027
0.083527245 0.28600395 -0.0015357444 0.2833783 0.113443 0.33744735 0.036280338 -0.03467818
0.09519738 0.6156002 0.000945696 0.100291155 0.45826975 -0.1937614 0.07422223 -0.0041150106
0.20785463 0.13750099 0.092474885 -0.046165425 0.10996406 0.122558534 0.021099433 0.10716184
0.22785528 0.2634434 -0.061413992 0.26113397 0.121454835 -0.09770381 0.18945321 0.04805648
-0.89350003 -2.1329477 1.0362583 0.6166624 -0.47897568 0.064063504 -0.46403864 0.023297494
-0.2595546 -0.012794987 -0.00023694689 0.03950352 -0.0015447154 0.028505078 -0.17393167 -0.16216508
-0.0022142907 -0.026605401 0.17849208 0.06828274 -0.017558306 -0.018999884 0.17084932 0.30259117
0.46846524 -0.18882631 -0.40693402 -0.43132588 0.4457814 0.07973416 -0.45231614 -0.1626443
-0.48026404 -0.022854492 0.03822985 -0.28525618 0.18636386 0.11496215 0.05551007 0.040641125
0.10860621 -0.11128754 0.09964589 0.008149223 -0.018012965 0.1603781 -0.011564947 -0.036838755
0.2015076 0.32568637 0.31105766 -0.3016624 -0.82462627 -0.12618938 -0.004235759 -0.04714925
-0.4205694 0.56129366 -0.060279585 0.18246095 -0.03376873 -0.14148337 -0.16512571 -0.08834441
0.122162946 -0.0062822946 -0.2358661 0.058656625 -0.17222922 0.059449073 -0.19471535 -0.044401657
0.5301772 -0.60639936 0.24778916 0.6617992 -0.21375413 0.10713522 -0.4879374 0.06660574
-0.12891123 0.061495624 -0.07273122 0.43581977 0.2969307 -0.08720644 -0.01371589 0.006262885
0.09117576 -0.14228176 -0.063977666 -0.16133937 0.16637102 -0.19959833 0.08959262 0.09706696
0.5642157 0.45946687 0.12934926 -0.26478228 -0.2336868 -0.1046212 -0.110034555 0.033462606
0.19920804 0.13529164 0.22398837 -0.23072696 -0.15314847 -0.49362782 -0.1978513 -0.16021001
-0.09922769 -0.0021394205 -0.17383905 -0.23769455 -0.0838358 -0.14836822 -0.20167752 0.081389666
0.085622355 0.1380098 0.120633654 0.025287917 -0.88911486 0.13186815 -0.17697364 0.11997005
-0.12933083 0.13340941 -0.0538495 -0.39641818 -0.09482633 0.24195278 -0.01133806 -0.115948886
0.114351414 -0.21246886 -0.18465814 -0.22463411 0.04723558 -0.11564058 -0.028043304 0.024935758
0.608617 1.0197309 -0.7534786 0.33288336 0.12519725 0.121197425 -0.15770845 0.09544141
0.17757764 0.0097407885 0.03012198 -0.021552082 0.26529077 0.3656551 0.20304547 0.026212474
00000000: caec aebe c95a b93f 4f39 e4be 2819 bb3d
00000010: 7ee7 6e3e 7229 ecbe be58 dabe aa1f 30be
00000020: 7ed1 503e 603b 3e3d 08cb 973e 1855 b33d
00000030: 8e71 37be 0319 543e f5f7 47bd 25ae 3a3e
00000040: e9fb 293d b6d1 5f3e 1552 71bd ada7 c83d
00000050: b663 aa3c 24e6 43bc 93ee b03d e8fc 39be
00000060: 5fae 593e 9a2a d83e 2940 0fbf 3c77 a3bd
00000070: 0e94 52bc 073d ea3d ae99 213f 54f5 263e
00000080: 809b c33d 862d 0bbf 728b 6dbe 7be9 0d3e
00000090: ee56 fd3c 75f3 2a3e 9b14 e6bd 1397 12be
000000a0: ba1a 8cbe 6293 ccbb 6e66 9abe 74b4 81be
000000b0: 5caa b5be 672c abbe cba0 9bbe 6e22 87bc
000000c0: b6a6 82be 3392 80bf 79cb 563f 3623 0abd
000000d0: 36c2 f43e 27fe 503e cb76 9cbd a474 d63d
000000e0: 3ebd babd 69cd 37bf 86d7 2dbd 6ee9 9ebe
000000f0: ca76 083d 3c32 aa3e fafb 8b3d e969 243e
00000100: 5510 ab3d 1c6f 923e 084b c9ba f616 913e
00000110: ce54 e83d e6c5 ac3e b19a 143d b50a 0ebd
00000120: d8f6 c23d fa97 1d3f 96e8 773a 7365 cd3d
00000130: 55a2 ea3e 6369 46be d301 983d 36d7 86bb
00000140: d8d7 543e 0fcd 0c3e 7963 bd3d f517 3dbd
00000150: d634 e13d f8ff fa3d b8d8 ac3c ab77 db3d
00000160: e552 693e 0ee2 863e 3d8d 7bbd 5ab3 853e
00000170: 50bd f83d ef18 c8bd 0600 423e dfd6 443d
00000180: 6bbc 64bf 3782 08c0 1da4 843f 96dd 1d3f
00000190: 4d3c f5be ba33 833d 7996 edbe 63da be3c
000001a0: 57e4 84be 11a2 51bc f274 78b9 71ce 213d
000001b0: 0c78 caba 7b83 e93c 251b 32be 9a0e 26be
000001c0: a21d 11bb 92f3 d9bc a1c6 363e d2d7 8b3d
000001d0: 70d6 8fbc a5a5 9bbc 20f3 2e3e 3bed 9a3e
000001e0: adda ef3e af5b 41be a859 d0be bfd6 dcbe
000001f0: 763d e43e aa4b a33d fb95 e7be 3a8c 26be
00000200: 2be5 f5be 5839 bbbc e796 1c3d 190d 92be
00000210: 2bd6 3e3e 4771 eb3d 875e 633d 4f77 263d
00000220: ef6c de3d b9ea e3bd 2513 cc3d 5284 053c
00000230: ed8f 93bc 283a 243e e77a 3dbc 3ce4 16bd
00000240: 0258 4e3e 5dc0 a63e f342 9f3e 7e73 9abe
00000250: b51a 53bf ca37 01be 1fcc 8abb 921f 41bd
00000260: df54 d7be f1b0 0f3f bae7 76bd 0bd7 3a3e
00000270: 1451 0abd 04e1 10be b716 29be eaed b4bd
00000280: 9130 fa3d b5db cdbb e286 71be ee41 703d
00000290: db5c 30be df80 733d 7663 47be 83de 35bd
000002a0: b1b9 073f fd3c 1bbf 71bc 7d3e ac6b 293f
000002b0: 5de2 5abe b669 db3d eed2 f9be 9768 883d
000002c0: 4e01 04be d6e2 7b3d 1bf4 94bd c523 df3e
000002d0: 4d07 983e 4a99 b2bd 9db8 60bc e338 cd3b
000002e0: 5bba ba3d 4fb2 11be b906 83bd 2636 25be
000002f0: 2a5d 2a3e 8163 4cbe 567c b73d 0bcb c63d
00000300: 7170 103f 3e3f eb3e 2274 043e 8b91 87be
00000310: 984b 6fbe a443 d6bd cc59 e1bd 1610 093d
00000320: 31fd 4b3e e489 0a3e 355d 653e b043 6cbe
00000330: f4d2 1cbe c9bc fcbe 8899 4abe 180e 24be
00000340: e337 cbbd 8535 0cbb dd02 32be 3366 73be
00000350: 1bb2 abbd d7ed 17be 8d84 4ebe a0af a63d
00000360: c65a af3d 7152 0d3e c70e f73d 9b28 cf3c
00000370: 089d 63bf 7208 073e 9438 35be dcb2 f53d
00000380: 4d6f 04be 7a9c 083e 4b91 5cbd 53f7 cabe
00000390: 4f34 c2bd 78c2 773e 45c3 39bc 9c76 edbd
000003a0: 1331 ea3d 7091 59be 0617 3dbe 7c06 66be
000003b0: 187a 413d f8d4 ecbd 12bb e5bc 1346 cc3c
000003c0: 53ce 1b3f 8b86 823f f9e3 40bf b06f aa3e
000003d0: b533 003e 5b36 f83d 537e 21be c976 c33d
000003e0: ead6 353e d497 1f3c 5fc2 f63c fe8d b0bc
000003f0: 31d4 873e 2537 bb3e 27eb 4f3e 8bbb d63c

bias f4 [128]
-0.19236508 -0.109660454 -0.08386589 -0.0071638525 0.33892927 0.13477175 0.29688832 0.18488602
0.085703634 -0.13053302 0.094638824 0.057490505 -0.044617657 -0.074263565 0.111524425 -0.022969278
-0.21544485 0.31236708 0.11325733 0.088273205 -0.0061844275 0.008599406 -0.2426559 0.25560758
0.16407096 -0.11133824 -0.20176812 0.31473675 0.11554901 0.112480626 -0.13481058 0.059120186
0.01259094 0.0985997 0.05497557 0.24578749 -0.1787679 0.106512144 0.015170152 -0.04622926
0.23946688 0.109613776 0.15236223 0.27082866 0.37414554 -0.06789135 0.0036424475 0.018652022
0.18161376 0.10230155 0.1746296 0.12865719 0.17123497 -0.032243352 0.020241437 -0.20224889
-0.069592364 0.15321016 0.23659597 0.12528776 0.20196703 0.06234136 -0.1244326 0.01761516
0.19411448 0.24112105 -0.1412299 -0.034612 -0.14866894 -0.015502941 -0.015423506 -0.053099237
-0.1889856 0.23635179 -0.19748114 0.11808479 -0.095380865 0.104223 0.12527256 0.025202814
0.1325762 0.28060645 -0.28305402 0.21787484 -0.040298358 0.117980085 0.1770332 0.070634365
0.07630704 0.1498934 -0.017926568 0.026259603 0.24753408 -0.101613164 0.07871464 0.25993025
0.16389562 0.19647163 0.055274606 0.12791353 -0.38529092 0.21125245 0.08122107 0.34838825
0.22092137 -0.026957037 0.01639524 0.058519036 0.0052143503 0.2214867 0.12054929 -0.076777555
0.08632112 0.0016515583 0.10980175 -0.019526236 -0.14249043 0.002480844 0.06877402 0.2260498
-0.035334636 0.05656986 -0.04878032 0.2753182 0.21659106 0.103912786 0.11342983 0.41525248
00000000: 5afb 44be a995 e0bd e1c1 abbd c0be eabb
00000010: 2388 ad3e 9b01 0a3e bf01 983e c352 3d3e
00000020: 6385 af3d 73aa 05be 00d2 c13d 2a7b 6b3d
00000030: 01c1 36bd 7f17 98bd eb66 e43d 112a bcbc
00000040: 939d 5cbe 94ee 9f3e 76f3 e73d 95c8 b43d
00000050: bda6 cabb 86e4 0c3c ca7a 78be ffde 823e
00000060: 3802 283e 4e05 e4bd 4d9c 4ebe 2d25 a13e
00000070: f6a4 ec3d 3e5c e63d c90b 0abe 0228 723d
00000080: 3b4a 4e3c a4ee c93d 102e 613d b7af 7b3e
00000090: ef0e 37be 0a23 da3d 3b8c 783c e45a 3dbd
000000a0: ce36 753e 307d e03d d804 1c3e 0eaa 8a3e
000000b0: 0190 bf3e 9f0a 8bbd 21b6 6e3b 20cc 983c
000000c0: f5f8 393e 7a83 d13d 1ad2 323e b6be 033e
000000d0: 3858 2f3e 9b11 04bd 5fd1 a53c 551a 4fbe
000000e0: 7186 8ebd 20e3 1c3e 3746 723e 6f4b 003e
000000f0: 72d0 4e3e a759 7f3d 85d6 febd ab4d 903c
00000100: f2c5 463e 70e8 763e 929e 10be 50c5 0dbd
00000110: ac3c 18be 0c00 7ebc dfb2 7cbc 967e 59bd
00000120: 7185 41be 3406 723e 7f38 4abe 70d6 f13d
00000130: 0b57 c3bd de72 d53d 7347 003e 2276 ce3c
00000140: 0ec2 073e a6ab 8f3e 75ec 90be 951a 5f3e
00000150: e40f 25bd 8b9f f13d 3148 353e c0a8 903d
00000160: de46 9c3d a87d 193e bdda 92bc 611e d73c
00000170: 9379 7d3e 901a d0bd 2435 a13d 9415 853e
00000180: 41d4 273e dc2f 493e a067 623d c4fb 023e
00000190: da44 c5be 9052 583e 3b57 a63d f25f b23e
000001a0: 3639 623e 01d5 dcbc 4f4f 863c a8b1 6f3d
000001b0: 24dd aa3b 69cd 623e 8ce2 f63d 8d3d 9dbd
000001c0: 21c9 b03d 1a79 d83a bddf e03d 7cf5 9fbc
000001d0: 03e9 11be a895 223b 65d9 8c3d 9979 673e
000001e0: 0dbb 10bd ccb5 673d dfcd 47bd 82f6 8c3e
000001f0: 0cca 5d3e 3ad0 d43d e64d e83d f99b d43e

weight f4 [128, 128]
-0.054876532 0.37280336 -0.44385833 0.08302636 -0.81002647 0.15362683 -0.28481525 -0.029962115
0.25269672 0.43565476 0.15105559 -0.7862208 -0.2538659 0.24268258 -0.20423916 -0.863472
0.33108 -0.27414328 0.00744011 -0.18815182 0.17573668 0.06093089 0.16040516 -0.26113477
0.32538465 0.0538181 0.12682992 0.19270338 0.15140814 0.32393932 0.014127465 -0.016824154
0.11644083 0.19513892 -0.25992402 0.30031034 -0.48907462 -0.04954203 -0.12239492 0.4309762
-0.42007405 0.25616544 0.33747157 0.13914636 0.23748831 0.12514791 0.07767855 -0.042074263
0.072459474 0.076380625 0.07926445 -0.26246795 -0.021769574 0.24239433 0.049482714 0.35348567
-0.2424746 0.014864337 -0.13352422 0.32296276 -0.14159824 0.12121937 0.06833292 -0.22232695
-0.16571218 0.09153215 -0.12301532 0.06793117 0.2685889 -0.09939356 0.22381821 -0.018626971
0.31155702 -0.05090939 -0.39077964 -0.23150699 0.05425779 -0.23577517 -0.049930856 0.32234716
0.27337062 0.09966301 0.1554579 -0.14078234 -0.024332099 0.0010028785 -0.04863297 0.1058402
-0.03583467 0.30776548 -0.0144060375 -0.1708473 0.17808196 0.09919277 -0.05709249 -0.110924296
0.057088517 0.07862096 -0.1718921 -0.26744407 -0.16769664 0.21996035 -0.071812764 0.36168855
0.07154233 0.403878 0.05768794 0.21071309 -0.039368566 0.021270676 0.23322546 0.051333837
-0.027810724 0.21936506 -0.31668797 0.08661585 0.5832009 -0.2296323 0.15829498 -0.16508399
0.057670288 -0.1403125 -0.15628515 -0.16364321 -0.24563836 0.14321154 -0.07298791 -0.22536202
0.10772097 -0.43612 0.19578525 0.103112265 0.25083318 0.0059461244 -0.14523375 0.004844113
0.06009348 0.1585533 -0.19295132 -0.063002266 -0.16425076 -0.0905429 0.14456442 0.03881343
0.21537432 0.1937023 -0.23856463 0.01419601 0.002179832 -0.26771852 -0.033043638 0.15523782
0.13714768 -0.18922082 -0.55227816 0.36472318 -0.018557427 0.48877022 0.28238982 -0.15262246
0.09492072 0.2182402 -0.13017079 0.32587105 -0.10202314 0.41002265 0.07082954 -0.16716264
-0.38687626 -0.5569553 0.0911724 0.49897045 -0.40417072 0.05107913 -0.27675182 0.18818484
-0.07908391 0.15952082 0.07484876 -0.031155596 -0.030612782 -0.24647203 0.24862537 -0.30282727
0.04397451 -0.1205545 -0.11360556 0.027138645 0.19993962 -0.06558117 0.13061035 -0.1406267
0.06254089 0.09637101 -0.32584977 0.048678625 0.26498684 0.07474099 -0.4530176 0.10025829
0.015443632 0.33911204 0.4893621 0.1360568 -0.018404765 -0.08761104 0.2146479 -0.5976003
0.049376104 0.347573 -0.33652946 -0.30347687 0.15580918 0.2814372 -0.328206 0.049420293
0.3501262 0.041986924 -0.1560561 -0.05995405 0.018320333 0.118219204 -0.34252262 -0.1180081
-0.008953533 0.21884999 -0.09587334 -0.004021006 0.045310136 0.020612547 0.123262376 0.019723346
-0.010233999 -0.23467591 -0.12555899 -0.14032319 -0.054041862 0.23983184 -0.040247284 0.11092707
0.09213342 -0.2591446 -0.018433776 0.22577849 -0.16148299 0.30018538 -0.026295722 -0.39833912
0.10715616 -0.08556639 0.0076531405 0.068342544 0.17393743 0.011064556 -0.044598963 0.2128395
00000000: 37c6 60bd 15e0 be3e 6641 e3be b909 aa3d
00000010: e55d 4fbf 5a50 1d3e 4ed3 91be 1c73 f5bc
00000020: 7761 813e 240e df3e 51ae 1a3e c445 49bf
00000030: b6fa 81be c881 783e 1224 51be 800c 5dbf
00000040: 5183 a93e 825c 8cbe 2bcc f33b dfaa 40be
00000050: 51f4 333e ab92 793d 4041 243e 75b3 85be
00000060: d198 a63e 5e70 5c3d b4df 013e 0954 453e
00000070: bc0a 1b3e 60db a53e e276 673c cfd2 89bc
00000080: 8878 ee3d 7fd2 473e c314 85be 47c2 993e
00000090: fd67 fabe 95ec 4abd 30aa fabd eaa8 dc3e
000000a0: f213 d7be 1e28 833e 13c9 ac3e 627c 0e3e
000000b0: 2330 733e c626 003e ee15 9f3d 1056 2cbd
000000c0: a265 943d 726d 9c3d 6655 a23d 3362 86be
000000d0: 1b56 b2bc 3836 783e 63ae 4a3d 13fc b43e
000000e0: 434b 78be 8c89 733c 93ba 08be 605b a53e
000000f0: 21ff 10be dc41 f83d 21f2 8b3d ada9 63be
00000100: 74b0 29be 3575 bb3d 75ef fbbd 7f1f 8b3d
00000110: 7c84 893e da8e cbbd 9a30 653e 9797 98bc
00000120: 6784 9f3e 5d86 50bd 4514 c8be 2b10 6dbe
00000130: 6b3d 5e3d 0c6f 71be 4c84 4cbd b00a a53e
00000140: 3cf7 8b3e 1f1c cc3d 5b30 1f3e 3f29 10be
00000150: 1c54 c7bc 0573 833a 5d33 47bd bfc2 d83d
00000160: 60c7 12bd 7093 9d3e 4d07 6cbc 98f2 2ebe
00000170: 1e5b 363e 9425 cb3d d1d9 69bd 472c e3bd
00000180: a6d5 693d 0704 a13d 7c04 30be 6eee 88be
00000190: abb8 2bbe 493d 613e 9212 93bd 3e2f b93e
000001a0: c984 923d 19c9 ce3e 304a 6c3d 2cc5 573e
000001b0: ef40 21bd d73f ae3c a8d2 6e3e 6e43 523d
000001c0: 51d3 e3bc 3ca1 603e ed24 a2be a763 b13d
000001d0: a74c 153f bb24 6bbe 1418 223e c70b 29be
000001e0: ae37 6c3d 14ae 0fbe 3709 20be 1692 27be
000001f0: 9f88 7bbe 0ca6 123e af7a 95bd 4dc5 66be
00000200: d09c dc3d 1f4b dfbe ee7b 483e 862c d33d
00000210: 356d 803e b5d7 c23b 28b8 14be 5dbb 9e3b
00000220: 9524 763d cc5b 223e 0895 45be 5507 81bd
00000230: 5a31 28be 8e6e b9bd b208 143e d5fa 1e3d
00000240: 168b 5c3e e559 463e 494a 74be 6296 683c
00000250: 83db 0e3b 6712 89be c458 07bd aaf6 1e3e
00000260: 7170 0c3e 1ac3 41be 1a62 0dbf ffbc ba3e
00000270: bf05 98bc 1740 fa3e 6695 903e 1049 1cbe
00000280: cb65 c23d 5c7a 5f3e 7e4b 05be 92d8 a63e
00000290: 82f1 d0bd 7dee d13e 140f 913d af2c 2bbe
000002a0: a514 c6be 9f94 0ebf 98b8 ba3d 0e79 ff3e
000002b0: 77ef cebe 5a38 513d 6ab2 8dbe 87b3 403e
000002c0: bff6 a1bd 6d59 233e 4f4a 993d 053a ffbc
000002d0: a8c7 fabc 2a63 7cbe a697 7e3e 2d0c 9bbe
000002e0: 9e1e 343d 47e5 f6bd 08aa e8bd dd51 de3c
000002f0: f9bc 4c3e 6c4f 86bd b8be 053e 7200 10be
00000300: 7015 803d 2a5e c53d c8d5 a6be 3d63 473d
00000310: 5bac 873e ce11 993d ecf1 e7be 3854 cd3d
00000320: 4a07 7d3c 18a0 ad3e ab8d fa3e 7952 0b3e
00000330: 97c5 96bc 6b6d b3bd a9cc 5b3e 55fc 18bf
00000340: 993e 4a3d 17f5 b13e 974d acbe 5261 9bbe
00000350: 718c 1f3e 8918 903e 9e0a a8be ef6c 4a3d
00000360: be43 b33e 7bfa 2b3d 2ccd 1fbe 6192 75bd
00000370: 8614 963c e91c f23d 205f afbe 3bae f1bd
00000380: d7b1 12bc 361a 603e 3e59 c4bd a5c2 83bb
00000390: 1f97 393d a5db a83c fc70 fc3d db92 a13c
000003a0: 81ac 27bc e24e 70be 8992 00be e2b0 0fbe
000003b0: 005b 5dbd 7a96 753e 56da 24bd bb2d e33d
000003c0: 72b0 bc3d 9aae 84be 6e02 97bc 7a32 673e
000003d0: cc5b 25be e6b1 993e 206a d7bc 1bf3 cbbe
000003e0: b074 db3d 6e3d afbd 32c7 fa3b 2df7 8b3d
000003f0: a71c 323e 1d48 353c 67ad 36bd 99f2 593e

bias f4 [128]
0.13106306 0.07795694 -0.026830021 -0.07041682 -0.012415934 0.02443115 -0.017577356 -0.09485902
-0.099505976 -0.032679956 0.05283579 0.09670881 0.07600754 -0.009767229 -0.013352824 -0.053895015
0.016244806 -0.048483495 0.12333007 -0.038758446 -0.0077256854 -0.07288338 -0.09048744 -0.10298782
-0.08066925 -0.017854694 -0.09801852 -0.07264999 0.01349144 0.1089836 -0.037559804 0.011945776
-0.04215525 0.042815983 -0.021352831 -0.006706201 -0.056207545 0.14019087 0.04033829 0.030882927
-0.03632547 -0.10566238 0.20737281 -0.0016939235 -0.13299894 -0.029181203 0.09434055 0.016003352
-0.007412827 -0.035601035 0.06574328 -0.13711147 -0.06935112 -0.008625067 -0.024160642 0.058772337
-0.023602113 0.0648295 0.015356196 0.07559503 0.0060417578 -0.044497963 0.04289005 -0.034137722
-0.0757583 -0.07158669 -0.09086017 0.15273763 0.038763177 -0.12155844 0.12303968 -0.087622024
-0.028579904 0.039880663 0.021843962 0.111640945 0.0071572457 -0.062499654 0.041496377 2.9481533e-05
0.18449746 0.111728214 -0.04148522 0.022888623 -0.056437507 0.1631173 0.075044915 0.081086054
0.08033809 -0.080874674 0.04324519 0.07016095 0.0064292834 -0.040234063 0.020278875 0.110576324
0.0627388 -0.04403664 0.030260485 -0.015972797 -0.039264426 -0.119737305 0.1260375 0.1945126
-0.032004874 0.13047595 -0.02250024 0.0031892823 -0.15080778 0.1118472 0.0070230532 -0.05536509
0.11975002 0.021115422 -0.0012708046 0.026362544 0.03438706 -0.06889861 0.040148266 0.15706864
-0.02071298 0.07745056 0.006460313 -0.064144224 0.018353611 -0.06102232 -0.041332472 -0.12039119
00000000: 6535 063e e3a7 9f3d a2ca dbbc b236 90bd
00000010: 346c 4bbc d623 c83c 63fe 8fbc 7245 c2bd
00000020: cac9 cbbd 6bdb 05bd 576a 583d 450f c63d
00000030: d7a9 9b3d ba06 20bc cec5 5abc 05c1 5cbd
00000040: d413 853c a196 46bd 7a94 fc3d 2dc1 1ebd
00000050: bf27 fdbb e243 95bd 7b51 b9bd 47eb d2bd
00000060: eb35 a5bd 0244 92bc efbd c8bd 85c9 94bd
00000070: 330b 5d3c cb32 df3d 4fd8 19bd 37b8 433c
00000080: fcaa 2cbd d05f 2f3d 22ec aebc b1bf dbbb
00000090: e239 66bd 328e 0f3e c339 253d 31fe fc3c
000000a0: 04ca 14bd 8565 d8bd 8a59 543e a406 deba
000000b0: e030 08be 6b0d efbc 9e35 c13d 7619 833c
000000c0: 4de7 f2bb 64d2 11bd 6aa4 863d f366 0cbe
000000d0: f607 8ebd 2750 0dbc 8aec c5bc 43bb 703d
000000e0: 3859 c1bc 54c5 843d 8e98 7b3c 91d1 9a3d
000000f0: f0f9 c53b 7f43 36bd 7aad 2f3d ffd3 0bbd
00000100: 2b27 9bbd 0b9c 92bd e614 babd 4167 1c3e
00000110: 23c6 1e3d a2f3 f8bd 3afc fb3d 2d73 b3bd
00000120: 6720 eabc e859 233d 1cf2 b23c 02a4 e43d
00000130: 5487 ea3b a3ff 7fbd 1bf8 293d 1c4f f737
00000140: e7ec 3c3e c3d1 e43d 68ec 29bd ec80 bb3c
00000150: 042b 67bd 3908 273e 26b1 993d 7210 a63d
00000160: 4c88 a43d 9fa1 a5bd de21 313d 8bb0 8f3d
00000170: bdac d23b 79cc 24bd e21f a63c d775 e23d
00000180: 337d 803d c45f 34bd d6e4 f73c 62d9 82bc
00000190: bcd3 20bd d538 f5bd f90f 013e 502e 473e
000001a0: 8b17 03bd 7d9b 053e 6c52 b8bc 4703 513b
000001b0: 5b6d 1abe 2510 e53d a421 e63b 81c6 62bd
000001c0: 803f f53d 40fa ac3c 2091 a6ba 43f6 d73c
000001d0: 72d9 0c3d b71a 8dbd 8272 243d 9ad6 203e
000001e0: 44ae a9bc 669e 9e3d 09b1 d33b 0c5e 83bd
000001f0: 505a 963c 8af2 79bd 3d4c 29bd a88f f6bd

weight f4 [4, 128]
-0.93463016 -0.5969624 -0.31072944 1.031187 0.08316887 0.91125625 -0.42529845 0.111972965
-0.07303392 0.9181562 0.26236847 -0.023764985 -0.16654842 0.09160312 0.15392737 -0.22276323
-0.083409086 -0.32041237 0.07167394 -0.83758837 -0.51602644 0.6342734 0.8121511 0.42307773
0.51055515 0.32735324 0.32300222 -0.043684248 -0.3928546 0.474737 0.37567878 0.22478344
0.16927464 -0.17617834 0.046509333 0.27807802 0.2153706 0.023794442 -0.15478511 0.26441506
-0.15122284 -0.29069883 0.21137977 -0.8091477 -0.23229569 -0.28414112 -0.13010411 -0.9107796
0.07204656 -0.010062428 0.4136791 -0.112943865 -0.2446688 -0.4966529 0.46491814 0.34168246
0.0054156124 -0.5745399 -0.3637328 -0.09916309 0.6693448 0.4070523 0.0028635727 0.02612859
-0.3085185 0.397461 0.5673236 0.35825488 -0.38542122 -0.2068432 -0.05470001 -0.4327588
-0.3308489 -0.44904694 1.0805988 -0.6733897 -0.016501646 0.6476232 0.4811117 0.7295623
0.45858255 0.0034550508 0.71996117 -0.6675147 -0.9121047 0.74656516 -0.7716721 0.10070048
0.35844582 -0.20010398 0.1294983 0.19161001 0.11646208 -0.19573137 -0.040437385 0.47604555
0.30356857 -0.29745197 -0.18965092 0.7751335 0.26523343 0.14998873 -0.41607997 -0.11109848
0.055883225 -0.075794235 -0.44449365 0.15645884 0.03768941 0.044086583 0.6912235 0.58850074
0.1669402 -0.86607206 0.030926717 0.056393694 -0.054893833 -0.084168874 -0.13930677 0.67424524
1.1411456 -0.46472174 0.2530865 0.15485626 0.5191063 -0.35760742 0.5152825 -0.11681076
0.020147862 0.32977587 0.58001167 -0.16222635 0.071947694 -0.10585443 -0.3428998 -0.0021801826
0.11228118 -0.59453565 -0.6039247 0.32139915 -0.012228318 -0.5265286 -0.972987 0.09843161
-0.5644261 -0.29558623 -0.5723417 -0.7097031 -0.17723496 0.13127823 -0.28667963 0.31793323
-0.50512224 -0.11065827 0.5164275 0.012280956 -0.93204796 -0.11938166 0.13415031 0.18713297
0.74405086 0.2270084 0.12606874 0.11719606 -0.0072728917 -0.019733917 -0.43819955 -0.7690102
-0.69286513 -0.068440996 0.5275479 -0.48877826 -0.46625996 0.08450315 0.803211 0.53625435
-0.58758277 -0.045455355 0.27537492 -0.32260576 -0.35133424 -0.5461777 -0.5006493 0.22495736
0.007068856 0.33572352 0.44344732 0.34696704 0.70220727 0.0769084 -0.041352414 -0.44410327
0.43566996 -0.3074725 0.16470963 0.51670116 -0.56999856 -0.7315007 -1.2462443 -0.26590875
-0.8209317 -0.9609174 0.45235908 0.15529698 0.32080808 -0.9115351 0.29128763 -0.7225832
0.33409065 -0.7469493 0.07428003 0.4585901 -0.44948483 -0.81050646 -0.35976356 0.10400851
0.40185666 0.099707566 -0.4001887 -0.49923286 0.28664914 0.78034616 0.049697492 -0.15582271
0.15587567 0.1159502 -0.19798973 0.29875386 0.42119703 0.006338451 -0.08454166 0.56457156
0.38777414 0.66615677 0.10030889 0.4637222 -0.1735956 0.6527539 0.44899333 -0.9886168
0.23841566 0.1723735 -0.18673764 0.40939462 0.3129756 0.24801739 -0.99543715 -0.11764165
-0.21172236 -0.312383 -0.27900103 0.11463474 -0.46547323 0.37085208 -0.15861434 -0.32666466
00000000: ec43 6fbf 87d2 18bf ee17 9fbe f0fd 833f
00000010: 7154 aa3d 1748 693f b8c0 d9be 1552 e53d
00000020: cf92 95bd 490c 6b3f 2955 863e c9ae c2bc
00000030: ab8b 2abe 6b9a bb3d 239f 1d3e 0b1c 64be
00000040: 62d2 aabd 170d a4be c9c9 923d 316c 56bf
00000050: 4f1a 04bf be5f 223f 22e9 4f3f a59d d83e
00000060: beb3 023f d89a a73e 8c60 a53e 41ee 32bd
00000070: 3d24 c9be ba10 f33e f858 c03e a12d 663e
00000080: 5556 2d3e 1868 34be 9280 3e3d 3e60 8e3e
00000090: 1c8a 5c3e 90ec c23c fd7f 1ebe 6961 873e
000000a0: 29da 1abe 7ad6 94be f073 583e 4e24 4fbf
000000b0: ecde 6dbe f27a 91be 033a 05be da28 69bf
000000c0: 268d 933d e2dc 24bc bfcd d33e 1d4f e7bd
000000d0: 758a 7abe 4a49 febe c009 ee3e 01f1 ae3e
000000e0: 7375 b13b 0c15 13bf 303b babe 0516 cbbd
000000f0: 2e5a 2b3f 2969 d03e c7aa 3b3b a00b d63c
00000100: 23f6 9dbe 0280 cb3e 1f3c 113f 2f6d b73e
00000110: ee55 c5be b4ce 53be 1e0d 60bd 9092 ddbe
00000120: 0765 a9be 7be9 e5be 1051 8a3f 4463 2cbf
00000130: 762e 87bc a2ca 253f 4654 f63e 98c4 3a3f
00000140: 55cb ea3e 226e 623b 604f 383f 3ee2 2abf
00000150: b27f 69bf e51e 3f3f 4e8c 45bf 0e3c ce3d
00000160: 3686 b73e 0fe8 4cbe 349b 043e 6a35 443e
00000170: ac83 ee3d ce6d 48be aca1 25bd 3ebc f33e
00000180: 576d 9b3e a04b 98be da33 42be 266f 463f
00000190: adcc 873e a596 193e 6f08 d5be 9a87 e3bd
000001a0: cfe5 643d 023a 9bbd ac94 e3be bf36 203e
000001b0: 3660 1a3d 2294 343d 06f4 303f fca7 163f
000001c0: 5ff2 2a3e e6b6 5dbf 075a fd3c 13fd 663d
000001d0: 5bd8 60bd bb60 acbd 6fa6 0ebe 569b 2c3f
000001e0: 0f11 923f 02f0 edbe 8e94 813e a492 1e3e
000001f0: 27e4 043f 5218 b7be 8ee9 033f 7b3a efbd
00000200: 210d a53c 62d8 a83e a57b 143f aa1e 26be
00000210: 5059 933d 35ca d8bd 9090 afbe 65e1 0ebb
00000220: adf3 e53d 7d33 18bf cf9a 1abf 6e8e a43e
00000230: 4859 48bc 94ca 06bf ad15 79bf 8396 c93d
00000240: 3b7e 10bf 1457 97be fc84 12bf 1aaf 35bf
00000250: 157d 35be cd6d 063e acc7 92be 25c8 a23e
00000260: b14f 01bf cea0 e2bd 9834 043f 1036 493c
00000270: b29a 6ebf 5f7e f4bd b35e 093e c99f 3f3e
00000280: 1e7a 3e3f e474 683e 2a18 013e 7d04 f03d
00000290: 7051 eebb 06a9 a1bc b15b e0be dadd 44bf
000002a0: 9c5f 31bf cb2a 8cbd 610d 073f 2541 fabe
000002b0: a0b9 eebe fd0f ad3d 3c9f 4d3f f747 093f
000002c0: d36b 16bf 652f 3abd f1fd 8c3e 952c a5be
000002d0: 15e2 b3be 4dd2 0bbf 8d2a 00bf 395b 663e
000002e0: dda1 e73b f4e3 ab3e 870b e33e aaa5 b13e
000002f0: dbc3 333f 2782 9d3d 2661 29bd 8161 e3be
00000300: 2210 df3e 096d 9dbe a4a9 283e 8746 043f
00000310: 6deb 11bf a143 3bbf ef84 9fbf 3125 88be
00000320: 9428 52bf affe 75bf 9c9b e73e 2c06 1f3e
00000330: f540 a43e 5d5a 69bf a723 953e 36fb 38bf
00000340: ee0d ab3e 1238 3fbf 2120 983d 52cc ea3e
00000350: e022 e6be 5a7d 4fbf ee32 b8be 6a02 d53d
00000360: 28c0 cd3e 7b33 cc3d 89e5 ccbe 739b ffbe
00000370: adc3 923e c4c4 473f 998f 4b3d fd8f 1fbe
00000380: df9d 1f3e 4c77 ed3d d2bd 4abe 44f6 983e
00000390: 23a7 d73e c8b2 cf3b 2e24 adbd c387 103f
000003a0: 558a c63e 4089 2a3f bf6e cd3d ff6c ed3e
000003b0: 0cc3 31be e11a 273f 74e2 e53e fe15 7dbf
000003c0: 3c23 743e ae82 303e 2738 3fbe 2c9c d13e
000003d0: 563e a03e 45f8 7d3e f8d4 7ebf 1bee f0bd
000003e0: bfcd 58be aaf0 9fbe 39d9 8ebe 9ec5 ea3d
000003f0: 8252 eebe 53e0 bd3e cc6b 22be 9740 a7be

bias f4 [4]
0.014875754 0.07183215 -0.106405206 0.035179023
00000000: 6fb9 733c bc1c 933d f9ea d9bd e117 103d

weight f4 [128, 24]
-0.34003797 1.4476005 -0.44731545 0.09015596 0.23482111 -0.4600179 -0.42620865 -0.17197275
0.20287749 0.044075213 0.29754147 0.089003846 -0.18061036 0.2079566 -0.049057953 0.1820722
0.041268237 0.21833646 -0.059162796 0.097720705 0.020533208 -0.012242248 0.08613991 -0.18169922
0.21296795 0.42220873 -0.5597241 -0.07975233 -0.010432647 0.11480541 0.6336432 0.16242024
0.09559172 -0.5459734 -0.23172577 0.13536899 0.03094054 0.16950573 -0.111054756 -0.14185959
-0.27232826 -0.004898688 -0.30017328 -0.25188008 -0.35328647 -0.33269086 -0.30219823 -0.014232659
-0.25233975 -1.0041641 0.837594 -0.033285942 0.47775096 0.206328 -0.07838974 0.10358174
-0.09153621 -0.7179438 -0.04180537 -0.31176016 0.03111307 0.3328443 0.068059094 0.16027303
0.08324059 0.28571343 -0.0018312578 0.28308374 0.11315309 0.3371473 0.03628846 -0.03447231
0.096542366 0.61638004 -7.7292214e-05 0.10085887 0.4592739 -0.19330779 0.075785555 -0.0035313717
0.20800227 0.13818905 0.092686914 -0.046147175 0.10844853 0.12314233 0.020809934 0.10687633
0.2275711 0.26315624 -0.061703727 0.2608526 0.12118242 -0.097978875 0.18914987 0.047640476
-0.89500904 -2.1325898 1.0353419 0.61619824 -0.48001137 0.064746685 -0.46538842 0.022735162
-0.25974414 -0.013111385 0.0005616026 0.03970974 -0.0017192273 0.02565244 -0.17637183 -0.16460143
-0.004653764 -0.029050695 0.17604263 0.06582157 -0.0200355 -0.021498192 0.16851753 0.30030575
0.46877095 -0.18876149 -0.40771365 -0.4309639 0.44566917 0.08004253 -0.45163676 -0.16199341
-0.4813259 -0.021730214 0.038914453 -0.28281197 0.18605983 0.11362919 0.054696165 0.039828774
0.10779102 -0.11211289 0.09881199 0.007310451 -0.01885993 0.1595242 -0.012449076 -0.037804633
0.20128766 0.32453954 0.3104006 -0.2998491 -0.8237014 -0.12290261 -0.0032117881 -0.047901466
-0.4200899 0.5613577 -0.059738025 0.17883855 -0.03379089 -0.13999854 -0.16619852 -0.08941009
0.12109963 -0.007354011 -0.2369471 0.05757133 -0.17331861 0.05834485 -0.19581883 -0.04542274
0.52817976 -0.60543144 0.24626571 0.66156894 -0.21467938 0.10656881 -0.48500058 0.06651647
-0.13164537 0.06319466 -0.07179526 0.4377457 0.29663643 -0.08969378 -0.01561772 0.004360453
0.089265235 -0.14420426 -0.06590974 -0.16328903 0.16438943 -0.20161891 0.08732958 0.094499975
0.56526965 0.46052924 0.13052987 -0.265004 -0.23352121 -0.10593003 -0.11070717 0.03416569
0.19993724 0.13803339 0.22465861 -0.22994919 -0.15395701 -0.49389133 -0.19651362 -0.1588725
-0.097884715 -0.0007855204 -0.17247088 -0.23630866 -0.08242775 -0.1469254 -0.2002832 0.08284348
0.085558996 0.13892773 0.120679945 0.024803707 -0.88839614 0.13067001 -0.1761981 0.121197045
-0.13070774 0.1323786 -0.054588187 -0.39444232 -0.09527207 0.2408295 -0.0124840485 -0.117098816
0.11320031 -0.21361753 -0.18580389 -0.22578244 0.04607777 -0.116801746 -0.029269148 0.023689065
0.6073413 1.0189762 -0.7532341 0.33253646 0.12500554 0.12165721 -0.16027933 0.09600109
0.1767849 0.009810051 0.028661115 -0.019728895 0.2668066 0.3654088 0.20349666 0.026664343
00000000: 7519 aebe f94a b93f 8806 e5be b0a3 b83d
00000010: f274 703e 7787 ebbe 0538 dabe a019 30be
00000020: 1ebf 4f3e 3688 343d 5b57 983e a647 b63d
00000030: ecf1 38be 93f2 543e fef0 48bd 2371 3a3e
00000040: e208 293d 9893 5f3e b054 72bd cb21 c83d
00000050: 4235 a83c b693 48bc 1f6a b03d 5c0f 3abe
00000060: 4514 5a3e be2b d83e 144a 0fbf 3155 a3bd
00000070: b1ed 2abc 191f eb3d 7136 223f 7e51 263e
00000080: 97c5 c33d eac4 0bbf 8549 6dbe 2b9e 0a3e
00000090: 0477 fd3c e992 2d3e ad70 e3bd a443 11be
000000a0: 9c6e 8bbe 2c85 a0bb 50b0 99be 6df6 80be
000000b0: f7e1 b4be 7556 aabe bab9 9abe 1930 69bc
000000c0: ad32 81be 7388 80bf 8f6c 563f d756 08bd
000000d0: c69b f43e a647 533e cd8a a0bd aa22 d43d
000000e0: 5677 bbbd 2acb 37bf 1c3c 2bbd 079f 9fbe
000000f0: d6e0 fe3c 916a aa3e 9162 8b3d 9d1e 243e
00000100: 0b7a aa3d 0849 923e d106 f0ba 5af0 903e
00000110: cfbc e73d 929e ac3e 35a3 143d d632 0dbd
00000120: 01b8 c53d 15cb 1d3f f117 a2b8 188f ce3d
00000130: f325 eb3e 7af2 45be 7535 9b3d 966e 67bb
00000140: 8cfe 543e 6e81 0d3e a3d2 bd3d d204 3dbd
00000150: 431a de3d 0c32 fc3d 9879 aa3c fae1 da3d
00000160: 6608 693e 6abc 863e 0cbd 7cbd 798e 853e
00000170: 7d2e f83d 26a9 c8bd 81b0 413e a922 433d
00000180: 501f 65bf 5a7c 08c0 1586 843f 2bbf 1d3f
00000190: 0dc4 f5be e999 843d 6447 eebe 173f ba3c
000001a0: 2ffd 84be 22d1 56bc 8338 133a aea6 223d
000001b0: b257 e1ba 1125 d23c d19a 34be 478d 28be
000001c0: 9a7e 98bb b9fb edbc 8544 343e 76cd 863d
000001d0: 7d21 a4bc fa1c b0bc dc8f 2c3e adc1 993e
000001e0: bf02 f03e b14a 41be d8bf d0be 4da7 dcbe
000001f0: c02e e43e 57ed a33d ef3c e7be 9ae1 25be
00000200: 5970 f6be 9003 b2bc c364 1f3d bbcc 90be
00000210: 7886 3e3e 6cb6 e83d 1609 603d 7f23 233d
00000220: 8ac1 dc3d 719b e5bd f15d ca3d 828c ef3b
00000230: 2480 9abc 505a 233e 36f7 4bbc 08d9 1abd
00000240: 5a1e 4e3e 0c2a a63e d4ec 9e3e d285 99be
00000250: 18de 52bf 5db4 fbbd dd7c 52bb 5434 44bd
00000260: 0616 d7be 23b5 0f3f dcaf 74bd 7421 373e
00000270: 5168 0abd c75b 0fbe f22f 2abe a31c b7bd
00000280: 1503 f83d eaf9 f0bb 43a2 72be eacf 6b3d
00000290: 6f7a 31be 02fb 6e3d bb84 48be 320d 3abd
000002a0: ca36 073f 8efd 1abf 142d 7c3e 955c 293f
000002b0: e9d4 5bbe c040 da3d ff51 f8be c939 883d
000002c0: 0bce 06be 346c 813d 6509 93bd 3420 e03e
000002d0: bbe0 973e 5fb1 b7bd 77e1 7fbc 22e2 8e3b
000002e0: b1d0 b63d 48aa 13be b0fb 86bd 3d35 27be
000002f0: b455 283e 3075 4ebe dad9 b23d 3489 c13d
00000300: 83b5 103f 7dca eb3e 9fa9 053e 9bae 87be
00000310: 2f20 6fbe d8f1 d8bd 71ba e2bd 53f1 0b3d
00000320: 59bc 4c3e a058 0d3e e80c 663e cd77 6bbe
00000330: e8a6 1dbe 53df fcbe de3a 49be 79af 22be
00000340: c877 c8bd 62eb 4dba 359c 30be e6fa 71be
00000350: e1cf a8bd 9d73 16be 0a17 4dbe d8a9 a93d
00000360: 8e39 af3d 1243 0e3e 0c27 f73d 2531 cb3c
00000370: ee6d 63bf 5cce 053e 466d 34be 2836 f83d
00000380: 40d8 05be 418e 073e dd97 5fbd 58f4 c9be
00000390: 011e c3bd 029c 763e e589 4cbc 81d1 efbd
000003a0: 90d5 e73d 8ebe 5abe 6043 3ebe 8333 67be
000003b0: 0bbc 3c3d c135 efbd dac5 efbc 920f c23c
000003c0: b87a 1b3f d06d 823f f3d3 40bf 3842 aa3e
000003d0: 7401 003e 6a27 f93d 4420 24be 389c c43d
000003e0: 1a07 353e 56ba 203c b7ca ea3c 7e9e a1bc
000003f0: e09a 883e dd16 bb3e 6e61 503e 2e6f da3c

bias f4 [128]
-0.19245952 -0.10744506 -0.083664306 -0.0075946418 0.33664742 0.13380763 0.2958418 0.18233013
0.08716555 -0.13169922 0.0950152 0.058117814 -0.043780793 -0.072533004 0.1089191 -0.023572369
-0.21561758 0.31158823 0.11321972 0.08964455 -0.007537392 0.0074461605 -0.24586721 0.25558236
0.16365404 -0.110742286 -0.20090875 0.31287786 0.11685125 0.11396493 -0.13528292 0.058402274
0.011417408 0.09753639 0.055343866 0.24445224 -0.17955594 0.10728256 0.012701616 -0.04433636
0.23935847 0.110349864 0.15215333 0.2690559 0.3763443 -0.065384634 0.0039348295 0.01772397
0.18144216 0.10273424 0.17407921 0.12610854 0.17060478 -0.031436592 0.021067921 -0.20071323
-0.07038343 0.1541681 0.23563643 0.12512058 0.20049134 0.061549447 -0.12198374 0.016115267
0.19460046 0.24214092 -0.14277074 -0.0329886 -0.14722084 -0.01648126 -0.01331254 -0.053150423
-0.18883045 0.234694 -0.19673495 0.117843024 -0.09440148 0.10292668 0.12429177 0.022482498
0.13290282 0.28135037 -0.28247723 0.22025256 -0.041718476 0.11839387 0.17736116 0.07276767
0.075426124 0.15046138 -0.01785503 0.02660367 0.24500722 -0.1002573 0.079825684 0.2585639
0.16319898 0.19573434 0.05265613 0.12958975 -0.38521522 0.21098262 0.08145031 0.34857503
0.22133726 -0.025577167 0.017191557 0.060127433 0.0052301073 0.22097735 0.12301112 -0.07737007
0.08683555 0.003758971 0.11065515 -0.018915383 -0.14144003 0.0017349692 0.07115967 0.22591552
-0.033883676 0.058632117 -0.049760778 0.2739393 0.21592484 0.103314996 0.11323487 0.41268292
00000000: 1c14 45be 280c dcbd 3158 abbd 79dc f8bb
00000010: 0d5d ac3e de04 093e 9478 973e c0b4 3a3e
00000020: da83 b23d 29dc 06be 5497 c23d f20c 6e3d
00000030: 7d53 33bd 2f8c 94bd fa10 df3d d71a c1bc
00000040: dbca 5cbe 7e88 9f3e bedf e73d 9097 b73d
00000050: 3afc f6bb ecfe f33b 9dc4 7bbe b1db 823e
00000060: ed94 273e dacc e2bd 06bb 4dbe 8731 a03e
00000070: b54f ef3d 7266 e93d 9b87 0abe 3937 6f3d
00000080: 1410 3b3c 29c1 c73d 40b0 623d b051 7a3e
00000090: 83dd 37be f5b6 db3d 701a 503c 0b9a 35bd
000000a0: 631a 753e 1cff e13d 15ce 1b3e b2c1 893e
000000b0: 33b0 c03e 61e8 85bd beef 803b dc31 913c
000000c0: f9cb 393e 5466 d23d d241 323e 9922 013e
000000d0: 05b3 2e3e a8c3 00bd a296 ac3c c587 4dbe
000000e0: 3025 90bd 3ede 1d3e ad4a 713e 9c1f 003e
000000f0: 9a4d 4d3e 461b 7c3d 9cd2 f9bd 2a04 843c
00000100: 5845 473e caf3 773e 7e32 12be 0e1f 07bd
00000110: 0fc1 16be b503 87bc d71c 5abc 42b4 59bd
00000120: c55c 41be a053 703e e374 49be af57 f13d
00000130: 9055 c1bd 39cb d23d af8c fe3d 372d b83c
00000140: ad17 083e 280d 903e dba0 90be e389 613e
00000150: fee0 2abd 7c78 f23d 2a9e 353e 3707 953d
00000160: 0379 9a3d 8c12 1a3e b644 92bc f1ef d93c
00000170: 2ce3 7a3e b353 cdbd a67b a33d 7d62 843e
00000180: a21d 273e 956e 483e f4ad 573d 2db3 043e
00000190: ee3a c5be d40b 583e 6ccf a63d 6d78 b23e
000001a0: 3ca6 623e 3587 d1bc 4fd5 8c3c 2f48 763d
000001b0: 5261 ab3b e347 623e 41ed fb3d 3374 9ebd
000001c0: d6d6 b13d 1259 763b 2b9f e23d 6ff4 9abc
000001d0: a8d5 10be e867 e33a 29bc 913d 6656 673e
000001e0: 9cc9 0abd 3b28 703d f5d1 4bbd c641 8c3e
000001f0: 671b 5d3e d096 d33d afe7 e73d 2d4b d33e

weight f4 [128, 128]
-0.054646943 0.3725138 -0.44315246 0.083751746 -0.8099881 0.15309297 -0.28416198 -0.028960723
0.25318617 0.43437153 0.15104052 -0.7890815 -0.25435138 0.24335243 -0.20354506 -0.8636177
0.33105773 -0.27453396 0.008485794 -0.1872665 0.17510875 0.060700886 0.15983286 -0.2624302
0.32602528 0.053916264 0.12744877 0.19187354 0.15295094 0.3227385 0.014904342 -0.016679576
0.116372064 0.19573285 -0.25997078 0.30035886 -0.48814136 -0.048798136 -0.12312307 0.43112835
-0.4191541 0.25674722 0.3348984 0.13954003 0.23766507 0.12616582 0.077435896 -0.04272877
0.07265585 0.07565575 0.079989366 -0.26238877 -0.021071753 0.24423109 0.050007913 0.35406008
-0.24204972 0.016216286 -0.1336315 0.3226979 -0.1410146 0.12134213 0.0683544 -0.22155091
-0.16637892 0.092255585 -0.12234169 0.06826107 0.26866862 -0.10066537 0.22366664 -0.017633695
0.31177035 -0.050442904 -0.39061734 -0.23186538 0.05532669 -0.23464602 -0.04901879 0.3223682
0.27416164 0.09856121 0.155077 -0.14069183 -0.02395476 0.00024894724 -0.048017822 0.10757255
-0.035946652 0.30831826 -0.013824866 -0.1703271 0.17796856 0.09929365 -0.055980492 -0.11196613
0.057795376 0.07857024 -0.17079933 -0.26697624 -0.16769634 0.22097328 -0.07126136 0.3624494
0.07067622 0.4042662 0.057360254 0.21175708 -0.039368536 0.02209678 0.23330325 0.0515363
-0.027169103 0.2194657 -0.31646824 0.08725234 0.5838815 -0.2291831 0.15899257 -0.16513641
0.058287587 -0.14000034 -0.15546821 -0.16344342 -0.24457468 0.1436983 -0.07385982 -0.22477965
0.107883096 -0.43639144 0.19511591 0.10351332 0.24844351 0.006049304 -0.14635901 0.0042897444
0.060264137 0.15809211 -0.1927383 -0.06521541 -0.16422047 -0.09047562 0.14254001 0.03600094
0.21446985 0.19160256 -0.23900388 0.013232883 0.0020229148 -0.2673868 -0.030561667 0.15256566
0.13582544 -0.18975317 -0.5526295 0.36352184 -0.019119175 0.48528183 0.28062877 -0.15338294
0.09538453 0.21848397 -0.13152495 0.32395688 -0.103007324 0.4085292 0.07024343 -0.1669379
-0.38609192 -0.55550814 0.087840654 0.4977509 -0.407116 0.0518089 -0.2772489 0.18663493
-0.079696015 0.15884572 0.07404344 -0.03317905 -0.030476645 -0.24688059 0.24801409 -0.30266374
0.042816844 -0.12147898 -0.113814235 0.026890405 0.19887993 -0.06603154 0.13088194 -0.14131062
0.060527448 0.095344804 -0.32784933 0.047151495 0.2641769 0.07393336 -0.45301002 0.09896955
0.015442093 0.3376912 0.48960784 0.13460651 -0.018076347 -0.08856049 0.21244925 -0.597668
0.05037179 0.34576693 -0.33597097 -0.30418348 0.15599883 0.28003943 -0.3295956 0.049809948
0.34924328 0.042181812 -0.15726823 -0.06059748 0.018370342 0.11795081 -0.34352466 -0.11905639
-0.010778062 0.21667668 -0.09763062 -0.0061028153 0.045309633 0.017822798 0.12175427 0.019494297
-0.010457951 -0.2332723 -0.12540387 -0.14114726 -0.054041605 0.23810531 -0.040742442 0.10990435
0.091104075 -0.25965863 -0.020535342 0.22490942 -0.160633 0.298489 -0.027142532 -0.4003836
0.10612112 -0.08546419 0.0046022935 0.0666235 0.17186937 0.008859139 -0.04602398 0.21127231
00000000: 79d5 5fbd 21ba be3e e1e4 e2be 0986 ab3d
00000010: 615b 4fbf 67c4 1c3e ae7d 91be 0a3f edbc
00000020: 9ea1 813e f265 de3e 5eaa 1a3e 3f01 4abf
00000030: 583a 82be 6131 793e 1e6e 50be 0d16 5dbf
00000040: 6680 a93e b78f 8cbe 0008 0b3c cac2 3fbe
00000050: b54f 333e 7ea1 783d 3aab 233e 405d 86be
00000060: c9ec a63e 4dd7 5c3d ee81 023e 7f7a 443e
00000070: 2c9f 1c3e fb3d a53e 5731 743c 9ba3 88bc
00000080: 7a54 ee3d 316e 483e e41a 85be a3c8 993e
00000090: aaed f9be 8ee0 47bd f327 fcbd dbbc dc3e
000000a0: 5e9b d6be 5f74 833e ce77 ab3e 95e3 0e3e
000000b0: 795e 733e 9d31 013e b696 9e3d 5d04 2fbd
000000c0: 97cc 943d 67f1 9a3d 77d1 a33d d257 86be
000000d0: ab9e acbc b717 7a3e 19d5 4c3d 5d47 b53e
000000e0: e2db 77be 04d8 843c b2d6 08be a938 a53e
000000f0: 2266 10be 3982 f83d 64fd 8b3d 3ede 62be
00000100: 3c5f 2abe 7ff0 bc3d 488e fabd 76cc 8b3d
00000110: ef8e 893e a529 cebd de08 653e 8a74 90bc
00000120: 5da0 9f3e 389d 4ebd fffe c7be 1e6e 6dbe
00000130: 3d9e 623d 0c47 70be edc7 48bd 720d a53e
00000140: ea5e 8c3e 76da c93d 81cc 1e3e 8511 10be
00000150: c63c c4bc 2285 8239 56ae 44bd ff4e dc3d
00000160: cc3c 13bd e4db 9d3e b181 62bc 3a6a 2ebe
00000170: 643d 363e 785a cb3d cd4b 65bd 804e e5bd
00000180: d8ba 6c3d 6fe9 a03d 05e6 2ebe 1cb1 88be
00000190: 97b8 2bbe d246 623e 7af1 91bd f892 b93e
000001a0: b2be 903d fbfb ce3e 96f2 6a3d d9d6 583e
000001b0: e740 21bd 4e04 b53c 0ce7 6e3e ba17 533d
000001c0: bd91 debc 9ebb 603e 2008 a2be 5bb1 b23d
000001d0: 4279 153f f9ae 6abe f3ce 223e 8519 29be
000001e0: f7be 6e3d 405c 0fbe 0f33 1fbe b65d 27be
000001f0: c971 7abe a625 133e d143 97bd a32c 66be
00000200: d0f1 dc3d b36e dfbe 77cc 473e cbfe d33d
00000210: fa67 7e3e 3d39 c63b 23df 15be fc90 8c3b
00000220: 87d7 763d e6e2 213e 305d 45be a88f 85bd
00000230: 6929 28be 484b b9bd 02f6 113e b975 133d
00000240: fc9d 5b3e 7633 443e 6fbd 74be bcce 583c
00000250: e192 043b ece6 88be 765c fabc 2c3a 1c3e
00000260: d315 0b3e a84e 42be 2079 0dbf 891f ba3e
00000270: d19f 9cbc dc76 f83e 93ae 8f3e 6b10 1dbe
00000280: f758 c33d 43ba 5f3e 7aae 06be addd a53e
00000290: 81f5 d2bd bd2a d13e cadb 8f3d c5f1 2abe
000002a0: d7ad c5be c835 0ebf cde5 b33d 35d9 fe3e
000002b0: 8271 d0be 9235 543d 91f3 8dbe 3a1d 3f3e
000002c0: aa37 a3bd 74a8 223e 16a4 973d c1e6 07bd
000002d0: 28aa f9bc 44ce 7cbe 68f7 7d3e bef6 9abe
000002e0: b760 2f3d f9c9 f8bd 7017 e9bd 4449 dc3c
000002f0: 2ea7 4b3e 8b3b 87bd ea05 063e bbb3 10be
00000300: a1eb 773d 2344 c33d dedb a7be ed21 413d
00000310: 3242 873e 606a 973d eef0 e7be 8cb0 ca3d
00000320: d500 7d3c dce5 ac3e e1ad fa3e 4ad6 093e
00000330: d914 94bc 345f b5bd 4c8c 593e c500 19bf
00000340: a652 4e3d 5d08 b13e 6304 acbe f0bd 9bbe
00000350: 28be 1f3e 5461 8f3e c1c0 a8be 8405 4c3d
00000360: 04d0 b23e d6c6 2c3d ec0a 21be 1035 78bd
00000370: 667d 963c 3290 f13d 77e2 afbe d6d3 f3bd
00000380: 7896 30bc 7ee0 5d3e 90f2 c7bd 20fa c7bb
00000390: 9896 393d 1e01 923c 4d5a f93d 81b2 9f3c
000003a0: d357 2bbc efde 6ebe df69 00be e888 10be
000003b0: bb5a 5dbd e1d1 733e 8ce1 26bd 8815 e13d
000003c0: c694 ba3d faf1 84be bc39 a8bc a84e 663e
000003d0: fa7c 24be 8dd3 983e 045a debc 14ff ccbe
000003e0: 0856 d93d d907 afbd d6ce 963b e771 883d
000003f0: 86fe 2f3e ec25 113c a483 3cbd c557 583e

bias f4 [128]
0.13121778 0.07685584 -0.027585536 -0.07041626 -0.012246427 0.024924943 -0.018718079 -0.095684305
-0.09958857 -0.03419758 0.052918173 0.09928043 0.07485192 -0.009143073 -0.0138188675 -0.05426803
0.015953809 -0.04848284 0.12233043 -0.0374281 -0.00696704 -0.07132535 -0.089548714 -0.10298873
-0.080613516 -0.017854404 -0.0980177 -0.07264994 0.01461277 0.108967856 -0.035572022 0.011602425
-0.039935347 0.042033035 -0.021353805 -0.0067061344 -0.056274228 0.13909534 0.040017452 0.031953014
-0.03570607 -0.105991825 0.20660535 -0.0026273988 -0.13347591 -0.029366834 0.09440977 0.015052182
-0.0072580916 -0.035600774 0.0645826 -0.13678405 -0.06845659 -0.008287345 -0.023242079 0.058772102
-0.02532434 0.065211885 0.015725229 0.074487835 0.008330758 -0.045133844 0.042890422 -0.034868844
-0.07755157 -0.070597336 -0.09110781 0.15335827 0.039453633 -0.1235406 0.12242613 -0.08825118
-0.027042307 0.041381307 0.020376656 0.11096682 0.0066107195 -0.061733045 0.0424677 0.00065933535
0.18300426 0.1121783 -0.042139232 0.022444062 -0.056089073 0.16419329 0.07567627 0.081246555
0.08066671 -0.081146784 0.042985335 0.069179915 0.0075014336 -0.039377227 0.020279195 0.11115523
0.06254146 -0.043257836 0.03132365 -0.015972758 -0.041125037 -0.11841002 0.12504905 0.19484198
-0.031335976 0.13067563 -0.022129199 0.003189294 -0.15031111 0.109585315 0.006683888 -0.054595713
0.11894956 0.021905309 -0.0016071813 0.027312296 0.034585144 -0.06785249 0.039392594 0.15803692
-0.018350122 0.07821496 0.005788461 -0.06602345 0.01764647 -0.061045676 -0.04176199 -0.12039181
00000000: f45d 063e 9866 9d3d 10fb e1bc 6636 90bd
00000010: 3da5 48bc 652f cc3c a856 99bc 22f6 c3bd
00000020: 18f5 cbbd c312 0cbd bac0 583d 8a53 cb3d
00000030: f74b 993d d4cc 15bc 8868 62bc 2748 5ebd
00000040: 90b1 823c f195 46bd 6088 fa3d 354e 19bd
00000050: c44b e4bb 0613 92bd 5165 b7bd c1eb d2bd
00000060: b318 a5bd 6643 92bc 81bd c8bd 7ec9 94bd
00000070: 666a 6f3c 8a2a df3d f8b3 11bd 1918 3e3c
00000080: 3f93 23bd d52a 2c3d 2dee aebc 22bf dbbb
00000090: ce7f 66bd 026f 0e3e 57e9 233d 2ae1 023d
000000a0: 8740 12bd 3e12 d9bd 5a90 533e 7030 2cbb
000000b0: e9ad 08be b792 f0bc e959 c13d 6d9d 763c
000000c0: 49d5 edbb 1ed2 11bd e243 843d 1e11 0cbe
000000d0: f832 8cbd a5c7 07bc 2c66 bebc 04bb 703d
000000e0: fe74 cfbc cf8d 853d 32d2 803c 148d 983d
000000f0: bb7d 083c 44de 38bd dead 2f3d a2d2 0ebd
00000100: 5cd3 9ebd 5695 90bd bb96 babd f309 1d3e
00000110: 229a 213d db02 fdbd 8dba fa3d 09bd b4bd
00000120: d487 ddbc 727f 293d f2ec a63c 9242 e33d
00000130: bc9e d83b cadb 7cbd 9cf2 2d3d 3fd7 2c3a
00000140: 7865 3b3e bdbd e53d 309a 2cbd 9cdc b73c
00000150: a8bd 65bd 4922 283e 29fc 9a3d 9864 a63d
00000160: 9734 a53d 4930 a6bd 6411 303d 33ae 8d3d
00000170: 96ce f53b 044a 21bd 8e20 a63c 5aa5 e33d
00000180: bd15 803d 212f 31bd 3a4d 003d 4dd9 82bc
00000190: ba72 28bd f480 f2bd dc0c 003e a884 473e
000001a0: 275a 00bd d5cf 053e 4b48 b5bc 7903 513b
000001b0: 28eb 19be 446e e03d 8404 db3b c19f 5fbd
000001c0: d49b f33d c372 b33c 0ea8 d2ba 09be df3c
000001d0: 27a9 0d3d 3ff6 8abd 215a 213d 6ed4 213e
000001e0: ff52 96bc 2a2f a03d 21ad bd3b 4d37 87bd
000001f0: 548f 903c 080b 7abd 9f0e 2bbd fb8f f6bd

weight f4 [4, 128]
-0.9347379 -0.59660834 -0.31051436 1.0311971 0.08213923 0.91175455 -0.42421415 0.11134569
-0.07318132 0.9172149 0.2627489 -0.02219584 -0.16635439 0.090769514 0.15275 -0.22242369
-0.08307593 -0.320414 0.07146394 -0.8352899 -0.5144084 0.635797 0.81080735 0.42307717
0.50985396 0.32735795 0.3230068 -0.043684658 -0.39321032 0.47454312 0.37548947 0.22413868
0.17398265 -0.17558059 0.046509176 0.2780768 0.21611698 0.024477808 -0.15492645 0.26568204
-0.15041843 -0.290974 0.21218827 -0.80876935 -0.23200572 -0.28461826 -0.12430441 -0.9102508
0.07291127 -0.010062484 0.4144833 -0.11226472 -0.24420673 -0.49621287 0.46590933 0.34168097
0.005920571 -0.57351834 -0.3645235 -0.09782192 0.67124945 0.4063978 0.0028636118 0.02675416
-0.3077237 0.4053651 0.5675059 0.35943753 -0.38547382 -0.20360239 -0.05339083 -0.43302852
-0.33217686 -0.45036438 1.080663 -0.6749669 -0.016204374 0.6473262 0.4804657 0.73108214
0.45964304 0.004013623 0.719236 -0.66635746 -0.91170585 0.7458846 -0.77086383 0.10048897
0.35869783 -0.20010787 0.12832214 0.19140391 0.116171904 -0.19623904 -0.04043769 0.4759887
0.3037475 -0.29714304 -0.18916346 0.77514124 0.26696134 0.15057036 -0.4156538 -0.11189867
0.055833872 -0.075206675 -0.44402272 0.15646085 0.038981196 0.045172002 0.69098806 0.5915002
0.16774975 -0.86664367 0.028931009 0.05686807 -0.05436552 -0.083664015 -0.13546316 0.6764666
1.142342 -0.46084735 0.25257587 0.15475723 0.5187846 -0.35797414 0.5138455 -0.11680957
0.020111272 0.32877418 0.57915896 -0.1622276 0.07165074 -0.10380208 -0.3428969 -0.002839824
0.11175875 -0.5921599 -0.6016475 0.32077459 -0.012785741 -0.5258725 -0.97431624 0.097869016
-0.5655526 -0.29558864 -0.57179606 -0.7085545 -0.17638849 0.13087709 -0.28779566 0.31793445
-0.5050845 -0.11065837 0.516433 0.012281083 -0.93273896 -0.12043887 0.13587238 0.18835238
0.7448901 0.22655663 0.12606843 0.117197 -0.008637896 -0.01928617 -0.44072846 -0.77016574
-0.69587487 -0.06861262 0.52651066 -0.4898122 -0.46650016 0.08448041 0.80367595 0.5354804
-0.5864969 -0.04545492 0.2740534 -0.32343197 -0.3521924 -0.54565144 -0.50277686 0.2249556
0.006760812 0.3343539 0.4431361 0.3464788 0.70321316 0.07651533 -0.041352622 -0.44595158
0.43300298 -0.30682886 0.16471013 0.5170883 -0.5700655 -0.72953624 -1.2438049 -0.2658859
-0.8213468 -0.96160805 0.45170486 0.15436822 0.32164994 -0.9134627 0.29249975 -0.72222257
0.33098546 -0.74847615 0.075189464 0.45581022 -0.45031387 -0.8100987 -0.3608063 0.105098255
0.4015079 0.09940187 -0.39872098 -0.4972251 0.2855412 0.7794253 0.049698025 -0.15638691
0.15588781 0.11762281 -0.19872062 0.29875368 0.4219666 0.006665842 -0.08594273 0.56409687
0.38695073 0.6655978 0.10206449 0.46372753 -0.17552114 0.6490753 0.44705924 -0.9876362
0.23743062 0.17249653 -0.18730551 0.40815064 0.3122389 0.24742056 -0.9952641 -0.11611314
-0.21040316 -0.3132279 -0.27973208 0.112578675 -0.46500397 0.3703589 -0.16014943 -0.32666653
00000000: fc4a 6fbf 53bb 18bf bdfb 9ebe 44fe 833f
00000010: 9d38 a83d bf68 693f 9932 d9be 3609 e43d
00000020: 17e0 95bd 98ce 6a3f 0687 863e 0dd4 b5bc
00000030: ce58 2abe 5ee5 b93d 7f6a 1c3e 09c3 63be
00000040: b723 aabd 4e0d a4be b05b 923d 8fd5 55bf
00000050: 45b0 03bf 98c3 223f 1291 4f3f 929d d83e
00000060: ca85 023f 769b a73e 2661 a53e afee 32bd
00000070: dd52 c9be 51f7 f23e 2840 c03e 9c84 653e
00000080: 8228 323e 66cb 33be 6880 3e3d 1560 8e3e
00000090: c54d 5d3e af85 c83c 0aa5 1ebe 7a07 883e
000000a0: 4a07 1abe 8bfa 94be e247 593e 820b 4fbf
000000b0: e892 6dbe 7cb9 91be 4f93 febd 3206 69bf
000000c0: 8152 953d 1edd 24bc 2837 d43e 0ceb e5bd
000000d0: 5411 7abe 9d0f febe ab8b ee3e cff0 ae3e
000000e0: 5901 c23b 19d2 12bf d3a2 babe dc56 c8bd
000000f0: 01d7 2b3f 5f13 d03e 6fab 3b3b 8a2b db3c
00000100: f68d 9dbe 048c cf3e 1148 113f 3208 b83e
00000110: d35c c5be 257d 50be 58b0 5abd eab5 ddbe
00000120: 1613 aabe 2996 e6be 2a53 8a3f a1ca 2cbf
00000130: 09bf 84bc 2bb7 253f 9aff f53e 3328 3b3f
00000140: 5556 eb3e b684 833b da1f 383f 6796 2abf
00000150: 8e65 69bf 4bf2 3e3f 5557 45bf 29cd cd3d
00000160: 3ea7 b73e 14e9 4cbe e166 033e 63ff 433e
00000170: 89eb ed3d e3f2 48be fea1 25bd cab4 f33e
00000180: cb84 9b3e 2223 98be 11b4 41be a86f 463f
00000190: 28af 883e 1e2f 1a3e 93d0 d4be 212b e5bd
000001a0: 0fb2 643d f505 9abd f256 e3be 4637 203e
000001b0: bfaa 1f3d 4706 393d 98e4 303f 8f6c 173f
000001c0: 97c6 2b3e 5cdc 5dbf b900 ed3c 7eee 683d
000001d0: 61ae 5ebd 0a58 abbd dbb6 0abe ea2c 2d3f
000001e0: 4338 923f 2ff4 ebbe a051 813e ae78 1e3e
000001f0: 11cf 043f 6348 b7be 618b 033f db39 efbd
00000200: 65c0 a43c 1755 a83e c343 143f fe1e 26be
00000210: a0bd 923d 2f96 d4bd 2f90 afbe 571c 3abb
00000220: c6e1 e43d cb97 17bf 9205 1abf 913c a43e
00000230: 497b 51bc 959f 06bf ca6c 79bf 8d6f c83d
00000240: 0ec8 10bf 6557 97be 3a61 12bf d463 35bf
00000250: 2f9f 34be a504 063e f459 93be 4ec8 a23e
00000260: 384d 01bf dba0 e2bd f434 043f 9836 493c
00000270: fbc7 6ebf a7a8 f6bd 2122 0b3e 72df 403e
00000280: 1eb1 3e3f 76fe 673e 1518 013e fb04 f03d
00000290: f685 0dbc 08fe 9dbc 29a7 e1be 9529 45bf
000002a0: db24 32bf c684 8cbd 67c9 063f aac8 fabe
000002b0: 1cd9 eebe 1104 ad3d b5bd 4d3f 3e15 093f
000002c0: a924 16bf f02e 3abd ba50 8c3e e098 a5be
000002d0: 9052 b4be d0af 0bbf fcb5 00bf c35a 663e
000002e0: cd89 dd3b 6f30 ab3e bce2 e23e ab65 b13e
000002f0: c705 343f 12b4 9c3d 5e61 29bd c453 e4be
00000300: 91b2 dd3e ac18 9dbe c6a9 283e e65f 043f
00000310: d0ef 11bf e3c2 3abf 0035 9fbf 3222 88be
00000320: c943 52bf f22b 76bf dc45 e73e b412 1e3e
00000330: 4daf a43e b1d8 69bf 87c2 953e 94e3 38bf
00000340: ed76 a93e 229c 3fbf effc 993d f55f e93e
00000350: 8a8f e6be a162 4fbf 9abb b8be c13d d73d
00000360: 7292 cd3e 3593 cb3d 2825 ccbe 4a94 febe
00000370: 7532 923e 6b88 473f 2890 4b3d e423 20be
00000380: 0ea1 1f3e 3ae4 f03d 6b7d 4bbe 3ef6 983e
00000390: 020c d83e 236d da3b be02 b0bd a768 103f
000003a0: 681e c63e 9e64 2a3f 3007 d13d b26d ed3e
000003b0: d0bb 33be cd29 263f f3e4 e43e bad5 7cbf
000003c0: 0321 733e eea2 303e 04cd 3fbe 1ff9 d03e
000003d0: c7dd 9f3e d15b 7d3e a1c9 7ebf bacc edbd
000003e0: ed73 57be 685f a0be 0b39 8fbe a68f e63d
000003f0: 0015 eebe af9f bd3e 36fe 23be d640 a7be

bias f4 [4]
0.015438701 0.071626544 -0.10500559 0.035409182
00000000: 9bf2 7c3c f0b0 923d 2c0d d7bd 3809 113d
